src/sliding_tiles/5x5_models/5x5_custom_mult.pth (torch, 75992 bytes, 5 tensors)

net.0.weight f4 [128, 77]
0	0xbdda4cfc	-0.10659215
1	0xbd53ad2f	-0.051678833
2	0x3c80d14d	0.015724802
3	0x3da62460	0.08112407
4	0xbdebcb81	-0.11513425
5	0xbda4e686	-0.08051781
6	0x3d581f26	0.05276408
7	0xbd86659e	-0.06562351
8	0xbb3fe027	-0.0029277892
9	0xbdda39ea	-0.106555775
10	0x3cdf77a2	0.027278725
11	0xbddd2c4f	-0.10799467
12	0x3cf3e868	0.029773906
13	0x3b3b99a1	0.0028625506
14	0x3ad452a3	0.0016198944
15	0x3d91ce76	0.071194574
16	0x3dc9d86f	0.098557346
17	0xbdf25575	-0.11832706
18	0xbd4ca520	-0.049962163
19	0xbdc0fb2e	-0.09422909
20	0xbca253f0	-0.019815415
21	0xbcde86a5	-0.027163813
22	0xbd0626a5	-0.032751698
23	0xbc972d2e	-0.01845416
24	0x3b56d356	0.0032779775
25	0xbd9c0205	-0.07617573
26	0xbd513f24	-0.051085606
27	0x3d597821	0.05309308
28	0xbd944504	-0.07239726
29	0x3b164d22	0.0022934158
30	0xbd6c9c7d	-0.057766426
31	0x3d3d5606	0.046224616
32	0xbdcdd0c5	-0.10049585
33	0x3dc08ad9	0.09401483
34	0xbdab0b09	-0.08351714
35	0xbde115cf	-0.10990488
36	0x3da03976	0.0782346
37	0xbc685ca4	-0.0141822435
38	0xbde9973d	-0.114057995
39	0x3d3d6653	0.046240162
40	0x3c29dc3e	0.010367451
41	0x3c2f1fef	0.010688766
42	0xbc119bbf	-0.00888723
43	0xbdbf3f58	-0.09338254
44	0x3dc09693	0.0940372
45	0x3da29dc9	0.079402514
46	0x3c10a831	0.008829162
47	0xbd832d4a	-0.064051226
48	0xbc5eea45	-0.013605659
49	0x3d95a7b0	0.073073745
50	0xbd539329	-0.051654015
51	0x3d084f71	0.033278886
52	0xbdd5ea1a	-0.10445042
53	0xbd97b167	-0.07406884
54	0xbc14ab75	-0.009074082
55	0xbd442419	-0.047885988
56	0xbd3ed8e9	-0.04659358
57	0xbdf0ca7a	-0.11757369
58	0x3d770714	0.060309485
59	0xbd9fd6b5	-0.07804624
60	0x3d534e03	0.05158807
61	0x3c0ace22	0.008471997
62	0xbd16c536	-0.03680917
63	0xbd7f53f1	-0.062335912
64	0xbdaa9a44	-0.08330205
65	0x3b89e8a7	0.0042086425
66	0x3d9e6e0c	0.077358335
67	0xbd3be7a2	-0.0458752
68	0x3c1c2aeb	0.009531717
69	0x3d52ede2	0.051496394
70	0x3cd9d7a0	0.026592076
71	0xbdbe181f	-0.092819445
72	0xbd88b532	-0.06675185
73	0xbd760ee2	-0.060072787
74	0xbd1ec6c7	-0.038763788
75	0x3c2a0c8b	0.010378967
76	0xbdb3a620	-0.0877192
77	0x3d2b9243	0.041887533
78	0x3d5281f9	0.051393483
79	0x3d1c7edb	0.038206916
80	0x3cfe4f91	0.0310438
81	0xbd555cbf	-0.052090403
82	0xbd9e0263	-0.07715299
83	0xbd486f8c	-0.048934504
84	0xbdeb7d42	-0.114985004
85	0x3ad409ef	0.0016177277
86	0xbbe6d947	-0.0070449444
87	0xbd094061	-0.033508662
88	0xbc491f6c	-0.012275558
89	0xbe0241fb	-0.12720482
90	0x3d57402f	0.052551445
91	0xbdadb138	-0.084810674
92	0x3d307135	0.043076713
93	0xbc67fb25	-0.014158999
94	0xbe03ea08	-0.12882245
95	0xbdb32397	-0.087470226
96	0x3ce9fec2	0.02856386
97	0x3d7e7b82	0.062129505
98	0xbd3dee72	-0.046369977
99	0x3ccc0d54	0.0249087
100	0x3b95aba7	0.0045675817
101	0xbdece1ee	-0.1156653
102	0xbd918349	-0.07105119
103	0xbc2e40d6	-0.010635575
104	0xbd5399e2	-0.051660426
105	0x3ccb2022	0.024795596
106	0x3cd28432	0.025697801
107	0xbe13eac0	-0.14445019
108	0x3b90ff0b	0.0044249347
109	0xbdcc6eab	-0.09982046
110	0x3cb6a601	0.022295954
111	0xbe1a1a3f	-0.15049075
112	0xbda22dcf	-0.079188935
113	0xbe099235	-0.1343468
114	0x3bbd9f7c	0.0057868343
115	0xbde1e5bd	-0.11030147
116	0xbdb84695	-0.089978375
117	0xbdd828eb	-0.105546795
118	0x3c53974c	0.01291449
119	0xbd7dbd17	-0.06194791
120	0xbc0ddab9	-0.008658105
121	0xbcd4a89e	-0.02595931
122	0xbde1126f	-0.10989844
123	0xbccbd0b1	-0.024879785
124	0xbe1bef36	-0.1522797
125	0x3d87bbfd	0.06627653
126	0x3b081511	0.002076451
127	0xbd14577d	-0.036216248
128	0x3d869d60	0.06572986
129	0xbd84f22b	-0.064915024
130	0x3cae664c	0.021289013
131	0xbd4ff79b	-0.050773244
132	0xbc965b83	-0.018354183
133	0xbdd571d3	-0.10422101
134	0xbbbe12df	-0.0058005895
135	0xbdb92c50	-0.09041655
136	0xbd78e168	-0.06076184
137	0xbd018a26	-0.03162589
138	0x3d1e299e	0.038613908
139	0xbdfec255	-0.1243941
140	0xbd8f591a	-0.06999417
141	0x3c9d73d8	0.019220278
142	0xbdc2b25e	-0.09506677
143	0xbe0c789a	-0.13717881
144	0xbd59bf79	-0.05316112
145	0x3d8823f8	0.066474855
146	0xbc50773c	-0.01272374
147	0xbe0e689a	-0.1390709
148	0xbdee5775	-0.11637775
149	0xbd84a08c	-0.064759344
150	0x3caf795c	0.021420173
151	0x3d6ae5a2	0.0573479
152	0x3daef342	0.085424915
153	0xbd3523ce	-0.0442236
154	0xbde82c9a	-0.11336632
155	0xbc3c7e8a	-0.011504779
156	0xbdd76f34	-0.10519257
157	0x3d846a29	0.06465561
158	0xbda8f689	-0.08250148
159	0xbdfa0869	-0.12208635
160	0xbd9edbbe	-0.07756756
161	0xbd0395fb	-0.032125454
162	0xbdac33a8	-0.0840829
163	0x3d05b8cd	0.032646943
164	0xbd891d46	-0.066950366
165	0xbd7cd109	-0.06172279
166	0xbcc65c5d	-0.024213964
167	0xbda3efc5	-0.08004717
168	0xbdd03411	-0.10166181
169	0xbc68c9ce	-0.01420827
170	0xbcefafca	-0.029258627
171	0x3d42d92d	0.047570396
172	0x3d2dc9f4	0.042428926
173	0xbe1b8fd4	-0.15191585
174	0x3d31003c	0.043213114
175	0x3d3de04b	0.04635648
176	0xbe07ffda	-0.13281193
177	0x3d2f8f68	0.042861372
178	0xbd6644ac	-0.056217834
179	0xbd3cce83	-0.046095382
180	0xbd4153f5	-0.04719921
181	0x3ca93ff9	0.020660387
182	0xbd22e145	-0.039765615
183	0xbe15040a	-0.14552322
184	0xbd8d8303	-0.06909754
185	0xbbddaa9b	-0.0067647225
186	0xbd45a7aa	-0.0482556
187	0xbdf03ec6	-0.11730723
188	0x3ca18fae	0.019721832
189	0xbb98dfdd	-0.0046653585
190	0xbda404cb	-0.08008727
191	0xbda3a7da	-0.079909995
192	0x3cf9ce22	0.0304938
193	0x3c881fa3	0.016616648
194	0x3d52495d	0.051339496
195	0xbdde2b5d	-0.10848115
196	0xbc7423c1	-0.0149011025
197	0xbd2f6212	-0.042818137
198	0xbd374a32	-0.044748493
199	0xbd9ca2cd	-0.07648239
200	0xbd030d68	-0.031995207
201	0xbdfc2c9b	-0.12313195
202	0xbd7b2668	-0.061315924
203	0xbd9c53c2	-0.07633163
204	0x3c8ea939	0.017414676
205	0xba98a34a	-0.0011645344
206	0xbd99ef94	-0.07516399
207	0x3cc99102	0.024605278
208	0xbde97916	-0.114000484
209	0xbd97d024	-0.074127465
210	0xbdd18b16	-0.10231607
211	0x3d293fa6	0.041320466
212	0x3ce01d24	0.027357645
213	0xbd0aff6b	-0.03393499
214	0x3bdc97b7	0.006731953
215	0xbd4c1c7c	-0.049831852
216	0x3c32f534	0.010922719
217	0x3d16bba0	0.036800027
218	0xbc084abe	-0.008318601
219	0x3d885a7b	0.06657883
220	0x3b9d4c55	0.0048003593
221	0xbdc22e9a	-0.09481545
222	0xbdd9b77f	-0.10630702
223	0x3d1fb776	0.03899332
224	0x3d33dbbc	0.043910727
225	0xbbdd9f5e	-0.006763383
226	0x3d355d9e	0.044278733
227	0xbc8b8f2c	-0.017036043
228	0xbdb9570d	-0.09049807
229	0xbf0fb950	-0.5614214
230	0xbf1b8aa6	-0.60758436
231	0xbd1ecd46	-0.038769983
232	0x3da2f350	0.079565644
233	0xbd10c1a4	-0.03534092
234	0xbdcc0624	-0.09962109
235	0xbd1011e6	-0.03517332
236	0x3d34f5a9	0.044179592
237	0xbcedb1ee	-0.029015508
238	0xbdf5f679	-0.120099016
239	0x3d4e8196	0.05041655
240	0xbdc881df	-0.09790396
241	0xbdb0c14a	-0.08630617
242	0x3de02fe4	0.109466344
243	0xbdb71528	-0.08939582
244	0x3d1898c2	0.037255056
245	0xbc6ab41e	-0.01432517
246	0xbe125956	-0.14291891
247	0x3d9227aa	0.071364716
248	0x3bd05570	0.006357841
249	0x3db27f1d	0.08715651
250	0x3d8b6eaf	0.068082206
251	0xbc90003b	-0.017578235
252	0x3d11eab2	0.035624214
253	0xbdbc83fa	-0.0920486
254	0x3d87ffb7	0.066405706
255	0xbcc0391f	-0.023464737

net.0.bias f4 [128]
0	0x3dc4e8a9	0.09614689
1	0x3cc9326c	0.024560176
2	0xbd6b8248	-0.057497293
3	0x3d5c432f	0.05377501
4	0x3d81c26a	0.0633591
5	0x3dadd24f	0.08487379
6	0x3c621b73	0.01380049
7	0x3d87ecbb	0.0663695
8	0x3d29b86b	0.04143564
9	0xbd98b135	-0.074556746
10	0xbdd9abc7	-0.10628467
11	0xbc33eec9	-0.010982224
12	0xbde7aff9	-0.11312861
13	0x3d9e2d10	0.07723439
14	0x3da8a93b	0.08235403
15	0xbdbb22bb	-0.09137484
16	0xbc42fdc2	-0.011901321
17	0xbda13b74	-0.07872668
18	0xbd04aad9	-0.032389496
19	0x3dc382f6	0.09546463
20	0x3b3d0a47	0.0028845237
21	0xbc42393b	-0.011854465
22	0xbddd4e03	-0.10805895
23	0x3d8f5ab6	0.069997236
24	0xbc79583c	-0.015218791
25	0xbd3b5cb9	-0.045742724
26	0xbddfc042	-0.10925342
27	0x3d87c404	0.06629184
28	0xbdbf2ee3	-0.09335115
29	0xbd83085d	-0.063980795
30	0xbc26a4dc	-0.0101711415
31	0xbd69e25f	-0.05710065
32	0x3c911643	0.01771081
33	0xbcd68269	-0.026185231
34	0xbd00fc0e	-0.031490378
35	0xbd004f48	-0.03132561
36	0xbd9be85b	-0.07612678
37	0xbc885d97	-0.01664619
38	0x3db7f733	0.089826964
39	0x3bb407b6	0.0054940833
40	0xbde7f310	-0.11325657
41	0xbe1be49f	-0.15223931
42	0xbe007e37	-0.12548147
43	0xbb6c5098	-0.003605878
44	0xbdaa0d46	-0.08303313
45	0xbc1ce5fa	-0.009576315
46	0xbe113008	-0.14178479
47	0xbd182e80	-0.03715372
48	0x3d5f81c2	0.054567106
49	0xbddb153a	-0.10697408
50	0x3b9628ed	0.0045825155
51	0xbda4ba37	-0.0804333
52	0x3d8d3031	0.068939574
53	0xbce1fe73	-0.027587151
54	0xbce885d1	-0.028384121
55	0xbd625e15	-0.055265505
56	0x3d7bd08e	0.06147819
57	0x3cbfd3b3	0.023416376
58	0xbda41df0	-0.080135226
59	0x3d95406c	0.07287678
60	0x3d5fe61d	0.054662813
61	0xba97e999	-0.0011590003
62	0x3d77ed7d	0.06052922
63	0x3c1044e3	0.008805486
64	0x3c87441c	0.01651197
65	0x3ba4b669	0.005026628
66	0x3c38e850	0.011285856
67	0xbdda6cd0	-0.106652856
68	0xbc8eab33	-0.017415619
69	0xbd9e7715	-0.07737557
70	0xbdaf2d56	-0.08553569
71	0xbdcd8b5b	-0.100363456
72	0x3cf15595	0.029459754
73	0x3da40a18	0.08009738
74	0x3c9483d8	0.018129274
75	0x3d33715c	0.04380928
76	0x3d15682f	0.03647631
77	0x3a02b84c	0.0004986569
78	0xbd6db8ef	-0.058037695
79	0xbd3b871f	-0.04578316
80	0xbd441703	-0.04787351
81	0xbdf7006d	-0.12060628
82	0xbdbdf92e	-0.09276043
83	0xbc022dc4	-0.007945482
84	0xbda99025	-0.082794465
85	0xbdc1063c	-0.09425017
86	0xbd15ed7a	-0.03660343
87	0xbe00d470	-0.12581038
88	0x3c448329	0.011994162
89	0x3da13bf0	0.0787276
90	0x3b50b5a6	0.0031846552
91	0x3dba76d7	0.09104698
92	0xbd5b1913	-0.05349071
93	0x3c63ebee	0.0139112305
94	0x3d18bc1a	0.037288763
95	0x3da2d2e3	0.0795038
96	0xbb0209f9	-0.001984237
97	0xbd3e6c22	-0.046489842
98	0x3c2557bf	0.010091721
99	0xbdaf2b56	-0.085531875
100	0xbd5c2cbe	-0.053753607
101	0x3d84c07e	0.064820275
102	0xbdaa6f31	-0.08321989
103	0xbe030d48	-0.12798035
104	0xbd365ba3	-0.044520985
105	0xbd61aeb3	-0.055098247
106	0x3d8a8041	0.06762744
107	0x3d898dbf	0.06716489
108	0xba854c9d	-0.0010169927
109	0xbc31f4d1	-0.010861591
110	0xbcee8228	-0.029114798
111	0x3ca50b4a	0.020146985
112	0x3cb1c2d4	0.021699347
113	0xbdf32821	-0.11872888
114	0xbd2f09ef	-0.042734083
115	0xbdb479ad	-0.0881227
116	0xbdd2fd92	-0.10302271
117	0x3d46f00b	0.048568767
118	0x3da513ef	0.08060443
119	0xbd8f7621	-0.07004953
120	0x3c285cf3	0.010276067
121	0xbd379de4	-0.04482831
122	0x3d1ef42f	0.03880709
123	0x3d43266c	0.047644064
124	0xbd8c0eb1	-0.0683874
125	0xbdd49c70	-0.103814006
126	0x3bcdcaae	0.006280265
127	0xbdbce262	-0.092228666

net.2.weight f4 [64, 128]
0	0x3cd37adb	0.025815418
1	0x3d908c5f	0.07058024
2	0x3d4ce300	0.05002117
3	0xbcd0c5f3	-0.025485015
4	0xbd1c846b	-0.03821222
5	0x3d14a8c6	0.036293767
6	0x3d9c0cd8	0.07619637
7	0x3ca192a4	0.019723244
8	0xbdbe9d1a	-0.093073085
9	0xbce0acba	-0.027426112
10	0xbd4c8803	-0.0499344
11	0x3c92b93a	0.017910589
12	0x3c4359af	0.011923238
13	0xbd448e93	-0.047987532
14	0x3d77b781	0.060477737
15	0xbdb51d36	-0.08843462
16	0x3d430cca	0.04761962
17	0xbd6f2fe6	-0.05839529
18	0x3d39d09b	0.045364957
19	0xbd9f6e56	-0.07784717
20	0xbdb1bcc5	-0.08678583
21	0x3d8144da	0.063119605
22	0xbc3b76e9	-0.011441925
23	0xbc9b3fff	-0.018951414
24	0x3d6c1de1	0.057645682
25	0x3c2c68c7	0.010523028
26	0x3d5644b2	0.052311607
27	0xbdad1583	-0.08451369
28	0xbcacdec9	-0.021102326
29	0x3c89cff2	0.016822789
30	0x3d4ff352	0.050769158
31	0x3d7c33e8	0.06157294
32	0x3cf3dbac	0.029767834
33	0x3c749b5d	0.01492962
34	0xbd5d8f5c	-0.054091796
35	0xbb9c8b57	-0.004777353
36	0x3d430761	0.04761446
37	0x3c438072	0.011932479
38	0x3d92c814	0.07167068
39	0x3d6388d1	0.0555504
40	0xbd8860ef	-0.066591136
41	0xbce86def	-0.028372733
42	0xbd6d1f34	-0.057891086
43	0x3c27b0c3	0.010235014
44	0x3da239f4	0.0792121
45	0x3d376510	0.044774115
46	0x3c98ba05	0.018643389
47	0xbe1cf795	-0.1532882
48	0xbdad62b5	-0.084660925
49	0xbac0020a	-0.0014649045
50	0x3db0a5ed	0.08625398
51	0xbdef6d84	-0.1169081
52	0x3d92fa97	0.071767025
53	0xbd729033	-0.05921955
54	0xbd8c8aa9	-0.06862385
55	0xbd945490	-0.072426915
56	0x3d852572	0.06501283
57	0x3cdc36ba	0.026881564
58	0xbd6ae54f	-0.057347592
59	0xbc884d83	-0.016638523
60	0xbc9848cb	-0.018589398
61	0xbd5d148d	-0.053974677
62	0xbdc77086	-0.09738259
63	0xbc9155a6	-0.017741036
64	0xbc10ba3a	-0.008833462
65	0xbd821679	-0.063519426
66	0xbd8cfb48	-0.068838656
67	0x3d95eb94	0.073203236
68	0xbd84732f	-0.06467282
69	0xbda219a4	-0.07915047
70	0x3c9ce2ac	0.019151054
71	0x3cb6fe68	0.022338107
72	0xbd8b0fcd	-0.06790123
73	0xbd035d41	-0.032071356
74	0x3d99e680	0.075146675
75	0x3d429fb4	0.047515586
76	0x3c6e52c9	0.014546105
77	0xbd450b21	-0.048106316
78	0xbd910900	-0.07081795
79	0x3d123dd4	0.035703495
80	0xbc0ebbf8	-0.008711807
81	0x3cd27bfa	0.025693882
82	0x3bf393bf	0.007433384
83	0x3da139ca	0.078723505
84	0xbd66b108	-0.056321174
85	0x3da31582	0.07963087
86	0xbd709b88	-0.058742076
87	0xbb8f1f4d	-0.004367745
88	0x3da50faf	0.08059632
89	0xbda1070e	-0.07862674
90	0x3cd4eb6f	0.02599117
91	0x3d6ca3fe	0.057773583
92	0x3c01d40d	0.007924092
93	0xbc8b33a9	-0.016992407
94	0x3d9e5b0f	0.07732212
95	0x3b5aae78	0.0033368152
96	0xbd5b99f5	-0.05361362
97	0x3cd55a25	0.02604396
98	0xbcb29aab	-0.021802267
99	0x3d8b0cab	0.067895256
100	0xbbcef522	-0.006315843
101	0xbd4c6de8	-0.049909502
102	0xbd34b161	-0.044114474
103	0x3d88bd64	0.066767484
104	0x3b6706c0	0.0035251826
105	0xbd0a1ec6	-0.033720754
106	0x3b4d26f1	0.0031303728
107	0x3d9e0799	0.07716293
108	0xbccc98ea	-0.024975259
109	0x3cfdb302	0.030969147
110	0xbcc8ef00	-0.024528027
111	0x3db2c924	0.08729771
112	0xbd9c74dc	-0.07639477
113	0x3d553a27	0.05205741
114	0xbcceb5ec	-0.025233231
115	0x3d2a7399	0.04161415
116	0xbd04bcf2	-0.032406755
117	0xbda2ae0e	-0.079433545
118	0x3c8003d3	0.015626824
119	0x3d6057e8	0.054771334
120	0xbc16602d	-0.0091782035
121	0xbd7ae15c	-0.061250076
122	0xbd6b60f9	-0.057465527
123	0x3d0bcb19	0.034129236
124	0xbbba037d	-0.0056766854
125	0xbdb4f903	-0.08836558
126	0x3b246500	0.0025084615
127	0xbc8bf3da	-0.01708405
128	0x3d85d6d0	0.06535113
129	0x3c9adffc	0.018905632
130	0x3d065050	0.032791436
131	0xbe289b85	-0.16465576
132	0x3c90ecbf	0.017691014
133	0x3d1fed07	0.039044406
134	0xbdaa3f6e	-0.083128795
135	0x3d9d68bc	0.07685992
136	0xbd882cd3	-0.066491745
137	0xbcb29296	-0.021798413
138	0x3ca8915e	0.020577129
139	0x3ccfbe8d	0.025359416
140	0x3cc8807c	0.024475329
141	0x3c59b4f0	0.013287768
142	0x3d91b00e	0.07113658
143	0xbd25a26d	-0.040438104
144	0x3da547e5	0.080703534
145	0x3d7f7191	0.062364165
146	0x3bf30e5f	0.0074174847
147	0x3d2e5d27	0.042569306
148	0xbcc56a09	-0.024098413
149	0x3ba9f9d9	0.005187255
150	0xbdc28c3a	-0.09499402
151	0xbd3fa588	-0.046788722
152	0xbd97936f	-0.074011676
153	0x3b29a3b2	0.0025884924
154	0xbd8798ea	-0.06620963
155	0xbdc30b84	-0.09523681
156	0x3d9a5b6d	0.07536969
157	0xbd1665af	-0.036718067
158	0x3c36f8d0	0.01116772
159	0x3c8c1000	0.017097473
160	0xbda5141d	-0.08060477
161	0xbdc89c77	-0.09795468
162	0xbd3df736	-0.046378337
163	0x3d84f008	0.06491095
164	0x3d50db07	0.05099013
165	0xbd94c2f4	-0.07263747
166	0x3d0787ad	0.033088375
167	0x3c90559f	0.017618952
168	0x3d0b7bd3	0.034053635
169	0xbdb0eb75	-0.0863866
170	0xbd76fb4f	-0.06029826
171	0x3d6be937	0.057595458
172	0x3c680bc0	0.014162958
173	0x3cc92773	0.024554944
174	0xbd0440bf	-0.03228831
175	0xbef84867	-0.4849274
176	0xbc6f19ae	-0.014593525
177	0x3da1a958	0.07893628
178	0xbd937477	-0.07199948
179	0x3c89360a	0.0167494
180	0x3bd3cb3b	0.006463436
181	0x3d4f60de	0.05062949
182	0x3cd53d3b	0.026030174
183	0xbdd22d17	-0.102625065
184	0x3c80471b	0.015658906
185	0x3c6d69cd	0.014490557
186	0xbca0058c	-0.019533895
187	0x3c81d237	0.015847309
188	0xbd425612	-0.047445364
189	0x3c97798d	0.018490577
190	0xbb81178a	-0.0039395737
191	0x3c6cf4b4	0.014462639
192	0xbe5718f2	-0.2100561
193	0xbd8fcb8b	-0.070212446
194	0x3d736fef	0.05943292
195	0x3ca701df	0.020386634
196	0xbc75099b	-0.014955903
197	0xbd847835	-0.0646824
198	0xbd010657	-0.031500187
199	0x3d807ad4	0.062734276
200	0xbcd6f364	-0.026239105
201	0x3c1c923a	0.0095563475
202	0xbd8831c7	-0.06650119
203	0xbdab42cd	-0.083623506
204	0xbbb5ef63	-0.0055522188
205	0xbd84b6db	-0.064801894
206	0x3d4940f2	0.049134202
207	0xbe34a110	-0.17639565
208	0x3aebce74	0.0017990605
209	0xbce16f0c	-0.027518772
210	0xbd11b9f3	-0.035577726
211	0x3d2aff67	0.041747477
212	0xbd838110	-0.06421101
213	0x3d7220da	0.05911336
214	0x3d44c3ef	0.04803842
215	0xbd551b68	-0.05202809
216	0xbbe9ef92	-0.0071391547
217	0xbdb9fa6e	-0.09080969
218	0x3c76c35c	0.015061226
219	0x3d9f4eb3	0.077786826
220	0xbddd9b8e	-0.10820685
221	0xbdaf244f	-0.08551847
222	0xbd510ce9	-0.051037703
223	0x3d9113a3	0.070838235
224	0xbcbe6bc0	-0.023244739
225	0x3cb21d49	0.02174248
226	0xbdb44148	-0.08801514
227	0x3d8d305c	0.068939894
228	0x3da201e7	0.07910519
229	0xbdaee6a5	-0.08540086
230	0xbd3ef107	-0.04661658
231	0xbd900c5b	-0.070336066
232	0x3cb0c069	0.021576123
233	0x3d35222d	0.044222046
234	0xbb90cef5	-0.0044192025
235	0xbb6f252f	-0.003649067
236	0xbd2c4c36	-0.042064868
237	0x3cb7144f	0.022348551
238	0xbd549611	-0.051900927
239	0x3dce2b70	0.10066879
240	0x3d26a2ac	0.04068248
241	0xbd38f19d	-0.045152295
242	0xbb89dbee	-0.004207126
243	0xbcf4e3bb	-0.029893747
244	0xbc8640d3	-0.016388332
245	0xbc051c0c	-0.008124363
246	0xbc3cf395	-0.011532684
247	0xbc17a6d8	-0.009256087
248	0xbd328849	-0.043587003
249	0xbcfe50a0	-0.031044304
250	0xbc848f24	-0.016181536
251	0xbd7dd5c8	-0.061971456
252	0xbd03fd38	-0.03222391
253	0x3d8ed1e7	0.069736294
254	0xbd36354a	-0.044484414
255	0x3db2b08d	0.08725081

net.2.bias f4 [64]
0	0xbddc7bd4	-0.10765806
1	0xbe73df13	-0.23815565
2	0xbc7f87da	-0.015596354
3	0xbd8522d6	-0.06500785
4	0xbe368a49	-0.17826189
5	0xbdad9cc8	-0.08477169
6	0xbe60421b	-0.21900217
7	0xbd2508f2	-0.040291734
8	0xbc96e1b7	-0.018418176
9	0xbe10977f	-0.14120291
10	0xbd082e6c	-0.033247396
11	0xbdec62bb	-0.11542269
12	0xbcfb01ea	-0.030640561
13	0xbde6ccdf	-0.11269545
14	0xbdc59505	-0.09647564
15	0xbdbf73fd	-0.09348295
16	0xbd810e76	-0.06301586
17	0xbd0d255c	-0.034459457
18	0xbe4960ea	-0.19665876
19	0xbe090913	-0.13382368
20	0xbd53d8ac	-0.051720306
21	0xbcde2369	-0.027116494
22	0xbdccdfbb	-0.10003611
23	0x3d10ed34	0.035382465
24	0xbd331ab6	-0.043726645
25	0xbdaa4738	-0.08314365
26	0xbe25853e	-0.16164109
27	0xbd0ad9f4	-0.033899263
28	0xbdbe98bd	-0.09306476
29	0xbd529aec	-0.051417276
30	0xbccfec7e	-0.025381323
31	0xbccc2487	-0.024919761
32	0xbd48edc9	-0.049054895
33	0xbd23bac0	-0.03997302
34	0xbdd8eb6f	-0.105917804
35	0xbe045769	-0.1292397
36	0xbbbfa815	-0.0058488944
37	0xbe793cae	-0.24339554
38	0xbdbbebfc	-0.0917587
39	0xbdd01d5e	-0.10161851
40	0xbd7a8fb5	-0.061172206
41	0xba588b97	-0.00082605466
42	0xbde37f40	-0.111082554
43	0xbe4699c4	-0.19394594
44	0xbdb1330b	-0.08652314
45	0xbd98cf30	-0.07461393
46	0xbe24ecef	-0.16106008
47	0xbd9084ec	-0.07056603
48	0xbd64a3b5	-0.055820186
49	0xbb9c89c0	-0.0047771633
50	0xbd9f9dcc	-0.07793769
51	0xbb8aa256	-0.0042307777
52	0xbdbe2fb6	-0.09286444
53	0xbc9fd802	-0.01951218
54	0xbe1b3ffe	-0.1516113
55	0xba63cee4	-0.0008690192
56	0x3dfe510f	0.124178044
57	0xbe5d60fa	-0.21619025
58	0xb8fb29b1	-0.00011976378
59	0xbe12a549	-0.14320864
60	0xbabf884b	-0.0014612762
61	0xbe039354	-0.1284917
62	0xbd547a39	-0.051874373
63	0xbd801fc2	-0.06256057

net.4.weight f4 [1, 64]
0	0xbc41bb30	-0.011824414
1	0x3dc13c04	0.09435275
2	0xbd57daea	-0.052699007
3	0xbd7cd21f	-0.061723825
4	0x3d84cfce	0.06484948
5	0x3c90d796	0.017680924
6	0x3e281dbb	0.16417591
7	0x3d38c90c	0.04511361
8	0x3cf840e3	0.030304378
9	0x3d0e1e09	0.034696613
10	0x3ddae10e	0.10687457
11	0xbdece2e9	-0.11566717
12	0xbc01ae8f	-0.007915153
13	0x3d28d246	0.041216157
14	0x3de0c26d	0.10974584
15	0xbdd4cdaa	-0.1039079
16	0xbe4a2d4e	-0.19743845
17	0xbd62ae7a	-0.055342175
18	0x3e392413	0.18080167
19	0xbd7a32bf	-0.06108355
20	0x3dcbc51e	0.099497065
21	0xbd33843d	-0.043827284
22	0xbd2f489c	-0.042793855
23	0x3bb39b2f	0.005481146
24	0xbcbfb3e2	-0.023401204
25	0x3d8d485d	0.06898568
26	0x3df8e828	0.12153655
27	0x3bdc6eab	0.00672706
28	0xbb86b016	-0.0041103465
29	0xbd71e94e	-0.059060387
30	0xbdb7b14a	-0.08969362
31	0xbd679ae9	-0.05654422
32	0x3c82d418	0.015970275
33	0xbe22fb33	-0.15916137
34	0xbc9fa7f5	-0.019489268
35	0xbdc3ea39	-0.09566159
36	0xbdd186f8	-0.10230821
37	0x3e274245	0.16333874
38	0xbdff7e51	-0.12475265
39	0xbd32ee2a	-0.043684162
40	0x3d92c8d7	0.071672134
41	0xbd64fd35	-0.05590554
42	0xbd10e41e	-0.0353738
43	0x3e069ca3	0.1314569
44	0x3cfd0afd	0.030889029
45	0xb9a79200	-0.000319615
46	0xbc790778	-0.015199535
47	0xbd548160	-0.051881194
48	0xbbcd6b5d	-0.006268902
49	0xbcb3e352	-0.02195898
50	0x3c421c24	0.01184753
51	0xbdbcfdc0	-0.092280865
52	0xbd1b0934	-0.037850574
53	0xbd113179	-0.03544757
54	0xbde3281d	-0.110916354
55	0x3a45c77b	0.00075446785
56	0x3e8a169f	0.26970384
57	0x3dd1825d	0.10229943
58	0xb9d3d92a	-0.00040406856
59	0x3e15aa11	0.14615656
60	0xbdda673d	-0.106642224
61	0x3dfcbe62	0.12341
62	0xbcc4ab5e	-0.024007495
63	0x3d8a5780	0.067549706
