src/sliding_tiles/5x5_models/5x5_mse_mult.pth (torch, 75962 bytes, 5 tensors)

net.0.weight f4 [128, 77]
000000 17 25 8a 3d ca 65 62 bc 1a 59 04 be ab 0d d3 bb
       0.067453556 -0.013818214 -0.12924615 -0.0064408383
000010 6a 4a 95 3c 7a eb 9c bd fa cb bd 3b 3a 9c 1a be
       0.01822396 -0.07662101 0.005792138 -0.15098658
000020 b8 22 05 bd 5d 46 bb bd a6 01 d1 3b ac bc 3b bc
       -0.032503814 -0.0914428 0.0063783703 -0.011458557
000030 71 9c f5 bc 14 8a 9d 3c c3 d7 1d bd 1c b9 0d 3d
       -0.029981824 0.01923088 -0.038535845 0.034600362
000040 fa fc bd bd b2 1d eb bb f0 79 97 3c 79 73 e1 bd
       -0.09276767 -0.007175171 0.018490762 -0.11008353
000050 0d 07 8c bc d4 ed 4b 3d bd 29 0e bd 0f cc 52 bc
       -0.017093206 0.049787357 -0.034707773 -0.012866034
000060 b6 dd 62 3d f3 2f c7 bd 3e 13 4c 3d a2 4e e4 bc
       0.05538722 -0.097259425 0.04982304 -0.027869526
000070 3b 3b 49 bd d9 59 a7 bd d3 aa 9d bd 71 72 7b bd
       -0.049128752 -0.08171434 -0.07698598 -0.061388437
000080 35 cb 17 be 88 13 b4 bc 82 21 76 bd c9 3f a6 3b
       -0.14823611 -0.02198197 -0.06009055 0.0050735218
000090 bf cb e9 bc 28 c3 00 be cd a0 5f bd a9 98 1c be
       -0.028539537 -0.12574446 -0.05459671 -0.1529261
0000a0 82 6a 00 be 59 bd 39 3d aa ef 41 ba 2a 13 47 bd
       -0.1254063 0.04534659 -0.00073980785 -0.04860226
0000b0 d5 9d dd bd f7 41 8e bd 48 98 f5 bc 9f d5 a8 3c
       -0.1082112 -0.069461755 -0.02997984 0.020609675
0000c0 df ee 4c bd 4b 6b 6e 3d 8f 3b 91 bd 32 9d bd bc
       -0.050032493 0.05820779 -0.07091438 -0.023146246
0000d0 13 ac 3b 3b e2 77 0a bd 9f b3 7e bd 4c 3f ac bd
       0.00286365 -0.033805735 -0.06218302 -0.084105104
0000e0 8b 69 3a 3d 89 82 4b bd c9 e3 4c 3d 4b 69 e8 3c
       0.04551081 -0.049685035 0.05002192 0.02837052
0000f0 4e 26 c6 3c f9 e0 5a bd 57 c9 db 3c e0 3f bd bd
       0.024188187 -0.053437207 0.026829405 -0.09240699
000100 46 0f 98 bd 0f a5 eb bd 49 f4 da 3b 9c ac 12 be
       -0.07424788 -0.11506092 0.006681953 -0.14323658
000110 05 c9 3b 3d 3c a2 fd bc b1 88 11 3d d1 bb c7 bd
       0.045846004 -0.030961148 0.03553075 -0.0975262
000120 4d 55 0b bd da f6 14 be 68 ac 6e bd 6e 3b 2b 3d
       -0.034016896 -0.14547291 -0.05826989 0.041804723
000130 07 33 d3 3c 06 52 0c be 0d ba 8b 3b 3e a5 9e bc
       0.025781168 -0.13703164 0.0042641223 -0.019365903
000140 cf b1 6b bd a3 9a c7 bd 5c 79 33 bd ee 32 4c 3d
       -0.05754262 -0.097462915 -0.04381691 0.049853258
000150 9c 70 97 bd 05 3b a0 bd 20 17 83 bc 27 61 90 bd
       -0.073945254 -0.07823757 -0.016002238 -0.0704978
000160 d6 7c af 3b 7e 86 8b 3c 43 ab bb bd 06 13 54 bd
       0.005355458 0.017031904 -0.09163525 -0.051775955
000170 48 90 08 be c0 a8 93 bd 8a a2 aa 3d ca b9 fb bc
       -0.13336289 -0.07209921 0.08331783 -0.03072824
000180 8d 3c b3 bd e2 aa 9c 3d 43 0e de 3a 4c 5d 87 3c
       -0.087517835 0.07649781 0.0016941506 0.01652398
000190 fa 28 88 3d cb a5 85 3d a1 d3 67 bd b4 a9 8b 3c
       0.06648441 0.06525763 -0.05659831 0.017048694
0001a0 ea b7 57 3c 11 0b e0 bc b1 ed fd bd 09 dc 90 3c
       0.013166407 -0.027349027 -0.12398852 0.017683046
0001b0 1d 7a f4 bd 58 fc 88 3d 74 b1 d4 bd c8 1b 4c 3d
       -0.11937354 0.06688756 -0.10385409 0.04983118
0001c0 f1 45 1e bd 09 41 2c bd 43 29 03 be f0 ae 97 bd
       -0.03864092 -0.04205421 -0.12808709 -0.074064136
0001d0 81 fd 24 bd 09 b4 aa bd 3f 97 0c be 52 26 43 bc
       -0.040280823 -0.0833512 -0.13729571 -0.011910992
0001e0 2f 21 77 bc ec 71 03 bd 91 23 1e bc f7 d2 fe bd
       -0.015083595 -0.032091066 -0.009652034 -0.12442582
0001f0 14 d4 96 bd 6c 9d f0 bc 3e d0 c8 3c be 2d 59 bd
       -0.073646694 -0.02937194 0.02451336 -0.05302214
000200 92 37 8c bc 9a 2e 11 3d e6 34 d7 3c e5 3a 69 3d
       -0.017116342 0.035444833 0.026270341 0.05694093
000210 d5 fb 0c be 5c 9e 86 bc 7a ab d0 bd 2d 33 0f be
       -0.13767941 -0.016432934 -0.101889566 -0.13984366
000220 8d 7a 74 3c 6e e4 d2 bd 53 24 a7 3d bb 54 ba bd
       0.0149217965 -0.10297476 0.08161225 -0.09098192
000230 f6 d9 92 3d 8e 5f 5b bb 31 b2 84 bb 40 df e8 bb
       0.07170479 -0.0033473703 -0.0040495624 -0.0071066916
000240 87 3e 82 3b 10 c5 44 bd e5 6e d5 bc 02 6d c5 bd
       0.003974739 -0.048039496 -0.026053855 -0.09639932
000250 12 84 17 bd c0 ce 64 3d 4e 34 94 3d 04 83 14 be
       -0.036991186 0.055861235 0.07236539 -0.14503103
000260 1d d6 f3 bd 22 0e e0 3c d0 30 15 be c1 9d 45 3d
       -0.11906073 0.027350489 -0.14569402 0.04824615
000270 f2 63 ea bd 92 99 ca bd 37 b4 a0 bd c9 7d 38 bd
       -0.11444844 -0.098925725 -0.07846873 -0.045041833
000280 16 d6 a1 3b 8e 65 87 3d 85 97 27 3d 1a bc 3d 3d
       0.004938851 0.06611167 0.040915985 0.046321966
000290 62 60 a0 bd 61 35 7d bc 92 81 e9 bd d6 c8 06 bd
       -0.078308836 -0.015454621 -0.11401667 -0.032906376
0002a0 c2 b7 a4 3c 7a 12 44 bd 69 bf f7 bb 8c d4 a2 3d
       0.020107154 -0.047869183 -0.0075606597 0.07950696
0002b0 ce b9 0a 3c e5 ce 6b 3d 78 b3 b6 bd 84 aa dc bd
       0.008467151 0.057570357 -0.0892095 -0.10774711
0002c0 98 4d 21 3d ed c3 7e 3d ee e5 a4 3d dd 20 d1 bd
       0.03938064 0.062198568 0.08051668 -0.10211346
0002d0 57 0b b2 3d 4b 8c 6f 3c b6 a2 74 bd 9e 62 95 3d
       0.08693569 0.014620851 -0.059725486 0.072942
0002e0 90 e9 42 bd 19 29 d2 3b 89 1b 8a bd 0b d7 aa bd
       -0.047586024 0.0064135906 -0.06743533 -0.083417974
0002f0 5b e9 a9 3d 22 f5 df bd 5d ea 96 bd db 07 d6 3c
       0.08296462 -0.10935427 -0.0736892 0.026126793
000300 e7 5e 93 bd 5a e0 f6 bd 09 91 e1 3b 24 6b f1 bd
       -0.071958356 -0.120545104 0.0068837446 -0.117880136
000310 02 4c 4a bc b7 52 a0 3c 2c 8c 50 3c 73 6a 42 bc
       -0.012347223 0.019570692 0.012728732 -0.0118662
000320 32 7c de bc 57 b4 34 bd 13 b0 44 3b 70 b9 a0 3c
       -0.02715883 -0.044117298 0.0030012175 0.019619673
000330 8d d6 b6 3c a0 29 4d bd 88 78 b1 bc 1c 8e a3 bd
       0.022319103 -0.050088525 -0.02166392 -0.079860896
000340 56 e3 bb 3d 2d 9f dc bd 21 ce 85 bd fc fb 5e bd
       0.0917422 -0.10772548 -0.065334566 -0.05443953
000350 f8 cc 23 3c c2 ad f5 bd 7d 12 99 3b 75 53 7f 3d
       0.009997599 -0.11996032 0.0046713934 0.06233545
000360 17 05 60 3d 69 6f a9 3d 63 33 bb bd 71 58 de 3c
       0.054692354 0.08273203 -0.091406606 0.027141782
000370 50 61 d1 3c 71 1a 90 3c eb c2 52 3d f7 d0 40 3c
       0.025559098 0.017590733 0.05145542 0.011768571
000380 fb e8 c1 bd 82 fa 32 3b db a0 9e bd 28 3d b9 bd
       -0.094682656 0.0027309959 -0.077455245 -0.09044868
000390 8d a9 b4 3c 1b ac 29 be c9 07 f1 bd 19 92 c0 3d
       0.022053504 -0.1656956 -0.11769063 0.09402866
0003a0 d1 37 fe bc 42 50 d7 bc 71 50 d2 3d a7 85 5c 3d
       -0.031032475 -0.026283387 0.10269249 0.0538384
0003b0 9f 1e ab 3d ff c1 c8 bc 93 56 32 3b 59 e9 b5 bd
       0.0835545 -0.024506567 0.0027212247 -0.08882398
0003c0 d9 17 79 bd 7f 8e f5 bd 36 68 89 bd ec f4 1f b9
       -0.06081376 -0.119900696 -0.0670933 -0.00015254662
0003d0 44 21 71 3c 99 cf 77 bd 58 76 cf bb 26 f6 2e bd
       0.014717404 -0.060500715 -0.0063312463 -0.042715214
0003e0 a5 00 b3 bc 72 cb e9 bb 14 d1 23 3d 94 a3 98 bd
       -0.021850893 -0.0071348483 0.039994314 -0.07453075
0003f0 61 46 5e bd 63 98 a4 bd 0d 56 a8 3d 30 5f 1a bd
       -0.054266337 -0.08036878 0.08219538 -0.037688434

net.0.bias f4 [128]
000000 63 6b b9 3c a3 18 41 3d bf 4d 65 bc f4 67 a0 3d
       0.022634214 0.047142636 -0.013995587 0.078323275
000010 0b 16 c1 3b 92 16 ce bd c0 de aa 3d 74 26 53 3d
       0.0058925203 -0.10062899 0.083432674 0.051550344
000020 99 5a 90 bd 3d 90 b2 3c 69 b8 85 bd fb 3a 7f bd
       -0.0704853 0.021797294 -0.06529314 -0.062312108
000030 dc 8f ba bd 38 07 dc 3b 58 bb 52 3c 3d 6a 69 3c
       -0.0910947 0.0067147277 0.012862049 0.014246521
000040 01 01 e1 3d 9c 11 70 3d 3e e0 0a bd 0b 11 49 3a
       0.109865196 0.058610544 -0.03390526 0.0007670081
000050 4f a4 be 3d 01 12 c5 bd 9b 75 a3 bd d3 c1 b1 bc
       0.09308683 -0.096225746 -0.07981416 -0.021698868
000060 9a 80 da bc 29 7f d9 bd 84 c9 62 bd d3 7e 61 bd
       -0.02667265 -0.10619957 -0.05536796 -0.05505259
000070 dc 57 b3 bd 8a 41 9e 3d 6e 54 59 3c 54 e0 9c bc
       -0.08756992 0.07727344 0.0132647585 -0.019149937
000080 3c 49 5e 3d 3e 39 fe bd f1 be a7 3d 95 7b 3f bd
       0.05426906 -0.12413262 0.08190716 -0.046748716
000090 d3 24 b8 bc df 3a 05 bd c2 17 86 3c 34 61 12 be
       -0.022478497 -0.032526847 0.01636875 -0.14294893
0000a0 b2 e4 c4 3d d5 4a ff bc 97 5b 82 bd 29 39 f4 3c
       0.09613933 -0.031163612 -0.063651256 0.029812412
0000b0 c4 1c d8 3c fd 79 03 bd 56 46 8e 3d 9e 8b 1f 3d
       0.026380904 -0.03209876 0.06947009 0.03895151
0000c0 51 12 78 3d a6 dd 0c 3d 2f 0e 3c bd 05 73 58 3d
       0.060564343 0.034391068 -0.045911964 0.052844066
0000d0 51 82 d7 bd e9 89 c4 bd 0a 9a ed bd 9e 57 a0 3d
       -0.10522903 -0.09596617 -0.11601646 0.07829212
0000e0 2b 56 a6 bd 12 b4 c8 3d 90 48 5e bc f6 e1 b1 bd
       -0.08121904 0.09799971 -0.013567105 -0.08685677
0000f0 f1 98 b2 bd 0e 4f 31 3d 88 fc a2 3d cc ab f8 3c
       -0.087205775 0.043288283 0.07958323 0.030355357
000100 8d 43 11 bc a3 0a ae 3d 7a fc ac bc fe a5 1d bd
       -0.008866203 0.084981225 -0.021116484 -0.03848838
000110 71 2b c6 b9 a5 ce 67 3d b1 4b 12 3c b4 4d fd bd
       -0.0003779787 0.056593556 0.008929179 -0.12368336
000120 16 e5 90 bc 1e d5 06 3d cb 74 f7 3b cc a1 72 3d
       -0.017687362 0.03291809 0.0075517646 0.059236333
000130 f6 76 04 be 95 76 ce bd 97 63 35 3d 16 fd 70 3d
       -0.12936005 -0.100812115 0.04428443 0.05883511
000140 5c 8e ef bc e2 98 ec bd a9 fc c7 bc 5b fb 84 3d
       -0.029242687 -0.115525976 -0.02441247 0.06493255
000150 fb fd cc bc 62 18 bd 3b e5 74 83 bb 38 58 c9 bd
       -0.025023451 0.005770729 -0.0040117376 -0.098312795
000160 13 60 c9 bc 77 60 c3 bd 38 1f 92 3d 0c c6 f6 bb
       -0.024581945 -0.095398836 0.07134861 -0.0075309332
000170 8b 73 d8 3d 75 7d 88 bc c5 44 b3 3d f1 4f e5 3b
       0.10568913 -0.016661385 0.08753351 0.006998055
000180 b1 fc 7e bd 9d 99 8d bd 76 ee 89 3d 6f 2d c9 3d
       -0.062252704 -0.06914065 0.06734936 0.09823119
000190 24 6c 3b 3d 65 1f c7 bd 6d 30 43 bd 96 1c a4 3c
       0.045757428 -0.09722785 -0.047653604 0.020033162
0001a0 02 df 5e bd 09 f3 cd bc c2 74 12 be b2 0b 16 ba
       -0.054411896 -0.025140302 -0.14302352 -0.00057237886
0001b0 a5 b6 b2 bd 35 46 78 bd fe 24 03 bd 03 cd 84 bd
       -0.08726243 -0.06061383 -0.0320177 -0.064844154
0001c0 e8 0b e1 bb 49 b1 50 3d 87 f4 02 bd f5 e6 9a bd
       -0.0068678744 0.050950322 -0.03197148 -0.07563583
0001d0 d6 53 83 3d eb 61 4a 3d 02 72 96 3c 6e bd 04 3c
       0.06412475 0.049409788 0.01836491 0.008101804
0001e0 a7 29 6e 3d bb 42 97 bd 16 a2 c2 3d 4e 62 23 3d
       0.05814519 -0.07385775 0.09503572 0.039888673
0001f0 28 96 90 bd 2a 60 3e ba e6 4d 08 3d 67 5e f7 bd
       -0.0705989 -0.00072622544 0.033277415 -0.12078553

net.2.weight f4 [64, 128]
000000 c4 a6 aa 3c 81 64 95 bd 34 04 a1 bd b0 56 33 3d
       0.020831473 -0.0729456 -0.0786213 0.043783844
000010 4b 72 85 bd b1 b1 6f 3d b0 8e cd 3c ac 6e 5b bd
       -0.0651594 0.05851907 0.025092453 -0.05357234
000020 d7 a7 97 bd 24 52 a7 3b 65 98 0f bd b8 3f 92 3b
       -0.0740506 0.0051062275 -0.035057444 0.0044631623
000030 74 c3 25 bd 05 c5 28 3d 74 03 a9 3d 5d 4c a9 bc
       -0.0404696 0.041203517 0.08252612 -0.020666296
000040 87 ed fb 3c 94 cb a5 bd 75 17 2d bc e2 36 9b bd
       0.03075291 -0.0809547 -0.010564675 -0.075788274
000050 24 eb de 3b fe c6 03 3d 38 07 07 bd f3 38 12 3d
       0.0068029333 0.032172196 -0.03296587 0.035698842
000060 0d c1 87 bc de 6e a3 3c c6 d8 ab bd a6 b3 bd 3b
       -0.016571546 0.019950327 -0.083909556 0.005789238
000070 b1 ad 37 3b b2 8e ed bc a0 33 a2 3d 09 3e a0 bd
       0.0028027112 -0.028998706 0.07920003 -0.07824332
000080 57 1d d6 bc 5c 20 a7 3d f2 72 b7 3d 86 57 97 3d
       -0.026137037 0.08160469 0.08957471 0.07389741
000090 63 51 6e bd d6 1c e4 bc 3c 96 f0 3b 7d 66 9c 38
       -0.058183085 -0.027845781 0.007342128 7.4577496e-05
0000a0 90 ee 97 3c c2 4b 83 bc ee 57 70 3d 92 e9 a6 bb
       0.018546373 -0.016027335 0.058677606 -0.0050937617
0000b0 2b 6c 5d bd f9 1d 05 bd ea 83 8c bd 4d fc 06 3d
       -0.054058235 -0.032499287 -0.06861098 0.032955457
0000c0 d0 8d 29 bc 4c 0e 94 bd a8 d0 66 3d bf 62 a6 3c
       -0.010348752 -0.072292894 0.056351334 0.020310758
0000d0 f9 2d aa 3c c7 2c 63 bd 35 4c 51 3d 1c 46 78 3d
       0.020773875 -0.055462625 0.051098067 0.060613737
0000e0 e3 cc 00 bc 7b af ae bd fc 8d 59 3c 51 67 a7 bd
       -0.007861349 -0.08529564 0.013278481 -0.08174003
0000f0 3a 01 bb 3c 09 4e f6 3b 76 2b cf 3c 20 aa af 3d
       0.022827733 0.0075166267 0.025289278 0.08577371
000100 e4 57 4f 3d 79 62 5c bc 5b 34 ae bd 9f 9c 1d 3d
       0.05062093 -0.013451212 -0.0850608 0.038479444
000110 7a a9 b4 bd bf 13 c3 ba c7 12 ac 3d 08 11 31 3d
       -0.088213876 -0.0014883204 0.08402019 0.043229133
000120 da 95 94 3d 81 45 3d 3d 21 5f 48 bc 38 b2 69 bd
       0.072551444 0.046208862 -0.012229712 -0.05705473
000130 94 2b b7 bd 43 63 d2 3c 0d 55 b1 3b ba 39 6a 3c
       -0.08943859 0.025682097 0.00541175 0.01429599
000140 0c c8 bd 3c 9a 71 e2 bc 05 08 88 3d 5a b2 af bc
       0.023166679 -0.02764206 0.066421546 -0.02144735
000150 5c 97 10 bd b4 da b3 bc 45 f0 2f bd 7f a2 6d 3d
       -0.035300598 -0.021954872 -0.04295375 0.058016296
000160 56 0f 8b bc c8 7a c8 bc ed 8d 03 bd 54 64 a5 3d
       -0.016975086 -0.02447261 -0.032117773 0.08075777
000170 04 10 4f bd 57 b0 12 3d d2 9d d1 3c 2b 86 3a 3c
       -0.050552383 0.035812702 0.02558795 0.011384527
000180 db eb 7e bd 57 d7 64 bc f1 23 0e bd 13 02 56 bc
       -0.062236648 -0.013967357 -0.034702245 -0.013062018
000190 fe 02 9e bd 51 db a2 3d 75 39 9e 3b 31 ea a7 bd
       -0.077154145 0.079519875 0.0048286268 -0.08198965
0001a0 72 13 b2 bd 2a 3b 73 3c d6 6c af bd 21 3e 87 3d
       -0.08695115 0.014845649 -0.08565681 0.06603647
0001b0 09 36 8d bc ad 74 06 bc 3d 3e 5e bc 84 e5 15 3c
       -0.01723768 -0.008206529 -0.013564643 0.009148959
0001c0 15 26 52 bd 77 4f a1 3d 47 a0 55 3d 57 2d 8b bd
       -0.05130585 0.07876485 0.052154806 -0.06795757
0001d0 1a 93 7a 3d f6 82 a8 bd 97 0f 01 3d 6e 65 9c 3d
       0.061175443 -0.08228104 0.03150901 0.07636534
0001e0 d9 59 af 3b cd ea 16 3d 6b 45 1b 3c ed 28 fb bc
       0.005351287 0.036845017 0.009477 -0.030659163
0001f0 03 d4 89 bd 6b dd d6 bd 6f a9 09 3b e5 3f 99 bd
       -0.06729891 -0.10491451 0.0021005531 -0.0748289
000200 82 4b 4a bd c1 3b 02 3c f0 cd 7b 3d d5 9f 13 bd
       -0.049388416 0.007948817 0.061475694 -0.0360411
000210 54 5e 1c 3d 61 2a ff bc 20 63 d7 3c be 2c 7b 3d
       0.038175896 -0.031148138 0.026292384 0.061321966
000220 89 4b d7 3c 22 c7 b2 3c b3 b3 27 3d 79 bb aa b9
       0.026281135 0.02182347 0.04094286 -0.00032564605
000230 8e e7 75 bd 44 e0 a0 bb 3c ca 3b bd 27 41 ef bb
       -0.06003528 -0.004909547 -0.045847163 -0.007301468
000240 5d 20 ae 3d d0 35 b3 bd 22 97 36 3d fb 74 8a bc
       0.085022666 -0.08750498 0.044577725 -0.016901484
000250 83 d3 5b 3d bc a6 27 bd f0 1d 93 3d 82 0b 3f bd
       0.05366851 -0.040930495 0.071834445 -0.046641834
000260 09 12 a9 3d 9f 7b d0 3d f7 80 bc bc 5d 56 89 3d
       0.08255393 0.10179829 -0.023010714 0.067059256
000270 26 06 5b 3d 86 69 8a bd bb 69 56 3c 90 1f 4f bd
       0.05347266 -0.06758408 0.013086732 -0.05056721
000280 67 2d 5b bd b1 4a a9 3d 18 e2 86 3c 57 4a 4a bd
       -0.053510096 0.082661994 0.016465232 -0.049387302
000290 55 03 8c bd ea 7b 3e bd 32 85 18 3d 4f 07 ee bc
       -0.06836573 -0.046504892 0.0372364 -0.02905622
0002a0 6c 36 ae bd cc d2 1e bc 55 08 14 3d 9c 8c 3c 3d
       -0.08506474 -0.009693813 0.03614076 0.046032533
0002b0 3f 99 a2 bc 87 5b 4a bd a0 b4 e7 3b 7f e9 04 bb
       -0.019848464 -0.049403694 0.0070710927 -0.0020280776
0002c0 a0 af fa bc ba 45 ad bd e0 0d cd bb f1 fc 7a bc
       -0.030601323 -0.08460565 -0.0062577575 -0.015319095
0002d0 dd 9f af bd 84 a8 83 bd 14 86 c9 3c 37 18 40 3d
       -0.085754134 -0.06428626 0.024600066 0.046898093
0002e0 47 59 f3 3c 6e 40 40 3d e0 2c e0 3b 05 57 ae 3c
       0.029705657 0.046936445 0.006841287 0.021281729
0002f0 6f 34 81 3d 6c 6a 43 bd 9a 2a 64 3d 99 27 93 3c
       0.06308829 -0.047708914 0.05570469 0.017963218
000300 0d 7f b3 bc a6 eb 57 3d 83 e9 a0 3d 63 ed fe 3a
       -0.021911168 0.052714966 0.07857039 0.0019449409
000310 64 cf 2e 3c b6 29 e5 3b 00 48 a2 3c b9 39 77 bd
       0.010669563 0.0069934977 0.019809723 -0.060357783
000320 c6 b3 94 bd fa 64 74 3d 84 6c 86 bc 9b 40 9b bd
       -0.072608516 0.05966661 -0.016409166 -0.07580682
000330 7d 79 64 bd bc 8f 1c bc 08 31 70 3d be 27 b6 3c
       -0.055779923 -0.009555753 0.05864051 0.022235747
000340 8c 81 b9 bd a3 b0 bc bd 96 3f 58 bd c2 75 36 bb
       -0.09057912 -0.09213378 -0.052795015 -0.0027841185
000350 53 3b 4b bd 71 81 ac 3b ab 9c 47 be 72 a3 5f 3d
       -0.049617123 0.005264454 -0.19493358 0.054599233
000360 89 c2 63 bd 21 2f af 3d 11 6e 5a bc d5 74 a0 bd
       -0.055605445 0.08553911 -0.013331906 -0.07834784
000370 70 7d 53 bd 77 5a 20 bd 71 83 88 bb ae 59 b3 3c
       -0.0516333 -0.039148774 -0.0041660597 0.021893349
000380 80 3a 53 3d 3b 8c 1a bc 39 6a ca 3a 9e 59 9a 3d
       0.05156946 -0.009432848 0.0015443034 0.07536624
000390 35 6f 99 3d df 0a 85 bd 3d ff fd 3c 52 06 d6 3c
       0.07491914 -0.06496214 0.031005496 0.02612606
0003a0 6b 45 4c 3d ce 9f 4f bd 4d 90 11 be 6e cb 95 3d
       0.04987089 -0.05068951 -0.14215203 0.07314192
0003b0 8f a4 92 bd 83 45 6f 3c 2b 8d 60 3d 11 fb 34 3d
       -0.07160293 0.014603975 0.05482213 0.044184748
0003c0 6e 68 8f bd 6f c2 96 3d f8 69 5e bd a4 91 b5 3c
       -0.0700234 0.07361304 -0.05430028 0.022164173
0003d0 b6 e4 5c bd cc a9 76 bd c9 b0 de 3c 61 4a 6f 3d
       -0.053929053 -0.060220525 0.027183907 0.058420543
0003e0 0b 5c 8d 3c 80 1a 8f 3d 4c 1a 35 bd 38 f4 67 3c
       0.017255804 0.06987476 -0.04421453 0.014157347
0003f0 73 16 12 bd f3 bd 32 be 45 db 73 3c 47 4d 0a bb
       -0.03566594 -0.17455272 0.014883821 -0.002110319

net.2.bias f4 [64]
000000 82 eb bc bd 91 e8 a1 bd 3d 72 16 be 87 d7 7c be
       -0.09224607 -0.07905687 -0.14692016 -0.24691592
000010 7a b4 43 bc da 1e 77 bd 47 93 ff 3f 31 dd ee bd
       -0.011944884 -0.060332157 1.996682 -0.11663283
000020 4c fb be bd 11 55 e3 3f 9c aa 06 be 4e 47 16 be
       -0.09325275 1.7760335 -0.1315102 -0.14675638
000030 48 64 f0 bc 92 2f da bd 6c 57 a8 bf a6 d2 d8 bb
       -0.029344693 -0.106536046 -1.3151679 -0.006616908
000040 ba 65 22 be 70 45 0c be 2c ac 1a be 3f 28 db bd
       -0.15859118 -0.13698363 -0.15104741 -0.10701036
000050 6b 59 fb 3d 66 99 2b be 3a 57 45 bd e4 95 93 be
       0.122729145 -0.16757736 -0.04817889 -0.28825295
000060 b9 f9 75 bf 08 20 dc bd 26 fb aa bd c3 45 04 be
       -0.9608417 -0.10748297 -0.08348684 -0.12917237
000070 be 9d 78 bd 41 d9 20 be 03 7e fe bc f8 4e 15 be
       -0.06069731 -0.15707876 -0.031065946 -0.14580905
000080 1c a7 01 bd 50 04 c4 be 52 cc 4f be 05 2c 35 bd
       -0.03165351 -0.3828454 -0.20292786 -0.044231433
000090 a6 87 9f bc 87 08 b8 bb 27 41 b3 bc a3 a7 cd bd
       -0.019473862 -0.005616251 -0.021881653 -0.1004174
0000a0 bc 55 a3 bd 6e d8 43 be 70 62 34 ba 88 fb b0 bd
       -0.07975337 -0.1912553 -0.00068811234 -0.08641726
0000b0 9f 64 04 be 1d f8 f1 bc 36 e3 11 bd 41 4f 2f 3f
       -0.12929009 -0.029537255 -0.035617076 0.68480307
0000c0 64 1e 84 bc dc 4c 83 be 96 69 6b bd 87 41 0a be
       -0.016127773 -0.25644577 -0.05747374 -0.13501559
0000d0 ce 47 37 be 9b 43 58 bd 2a 85 f8 bd e9 b9 0c bb
       -0.17898485 -0.05279885 -0.12134774 -0.0021473116
0000e0 1b 45 1b be 0b ec 1b bd ec ff 97 bd 82 df c2 bc
       -0.1516308 -0.038066905 -0.0742186 -0.023788217
0000f0 9d 7a 8a bd cf 11 8f bc 14 18 78 ba 84 41 c2 bd
       -0.06761668 -0.017464546 -0.0009464037 -0.09485152

net.4.weight f4 [1, 64]
000000 e1 70 db 3b 78 74 d1 3c 76 7f 4f bc 77 b7 cb ba
       0.006696806 0.025568232 -0.012664666 -0.0015542348
000010 d1 68 06 bc 0f 54 4f bd ba ff 4c bd ed 8a 21 bd
       -0.008203701 -0.050617274 -0.050048567 -0.03943913
000020 89 6a 5f 3b 2f 00 93 bd 4c 0a a0 3d e1 4d 5f 3c
       0.00340906 -0.071777694 0.07814464 0.013629408
000030 b0 f8 91 3b f2 52 22 3d 81 91 ce 3d 6e b9 fb bc
       0.0044546947 0.039629884 0.100863464 -0.030728068
000040 79 b7 89 3c 4a 13 b6 bd 90 8e aa bc ca 28 d3 ba
       0.01681112 -0.08890398 -0.020819932 -0.0016110179
000050 45 1c 0e bd 92 8f 18 3c 14 84 24 3b 6d 6f 8c 3c
       -0.03469493 0.009311574 0.0025103139 0.017142976
000060 e4 7e 93 bc 9a 40 5f bd 4e 40 b7 3c 1b 5e ca 3c
       -0.018004842 -0.05450497 0.02236953 0.024703076
000070 11 39 68 3c 9d 12 8b bb 03 0c b1 3b cd 6a ed 3c
       0.014173762 -0.0042441622 0.0054030432 0.02898159
000080 6d c3 b1 3c 4e 14 d0 bb 5a ad fa 3a 2d 62 eb 3c
       0.021699632 -0.0063500768 0.0019125149 0.028733337
000090 4f 45 a3 bc 56 aa 36 3c c9 eb e4 bc 84 b8 a2 3c
       -0.01993051 0.01114901 -0.027944462 0.019863375
0000a0 24 a3 b2 3c 77 a1 92 3c 90 90 c0 bb a7 60 89 bd
       0.021806307 0.017899258 -0.005876608 -0.06707888
0000b0 6c e4 ad 3d c3 bd 8c bc 49 65 66 bc f0 67 41 bd
       0.08490834 -0.01718033 -0.014062234 -0.047218263
0000c0 c4 8c 88 3d 4f dc 7d bc 7c e8 92 3d 70 b4 04 3c
       0.06667474 -0.01549442 0.07173249 0.00809966
0000d0 3a 78 e3 bb ca 4f cf bc 5c be 3b 3c a9 7c d5 3b
       -0.0069418224 -0.025306601 0.011458959 0.006515105
0000e0 ee a5 1d bc b6 40 83 3d e9 23 a8 3b 80 3e 7a ba
       -0.00962208 0.06408827 0.005131234 -0.00095460564
0000f0 91 1d 75 3b 12 c4 59 3d 84 f2 ff 39 f1 9c 42 bd
       0.0037401656 0.053165503 0.00048818078 -0.047512952
