src/sliding_tiles/5x5_models/5x5_mse.pth (torch, 75592 bytes, 5 tensors)

net.0.weight f4 [128, 77]
0.020820683 0.06976633 -0.112871595 -0.092154086 0.030944249 0.011997611 -0.026668986 0.05206621
0.07181642 0.10290844 -0.1047312 0.023857212 -0.05568898 0.031501908 -0.03969388 0.09320292
-0.10778661 0.027041925 0.00025362134 0.061307803 -0.090204686 0.02377354 -0.050003182 -0.002658439
-0.10300204 0.011706101 -0.082228936 -0.022793494 -0.05187447 -0.014935022 -0.05331568 0.03229857
-0.107421555 -0.0243054 -0.016064858 0.094610356 0.044496465 -0.0022180218 0.015437483 -0.08503987
-0.0891196 -0.031217515 0.014753293 0.046030175 -0.07808229 -0.052179106 0.09218114 -0.027406389
-0.083583236 0.008644183 -0.057692762 -0.020683745 -0.04295539 0.011386225 -0.015334507 0.05121252
5.1596435e-05 0.05573737 -0.098670036 -0.047818147 -0.04788171 -0.04026182 -0.0903831 -0.113321476
-0.007527333 -0.060172353 -0.012681162 -0.020060934 0.062001526 0.093757465 -0.10954598 -0.08195787
-0.07106881 -0.0461458 -0.10379816 0.09614432 0.05275248 -0.05427808 -0.0012911202 -0.012817531
-0.10624179 -0.014887953 -0.0062736976 -0.09434947 0.048271727 -0.08511085 -0.108924635 0.060505297
-0.0410252 0.0402424 0.07080157 -0.08476408 0.037963632 -0.06507728 -0.068898596 -0.012551776
0.04596892 -0.010302296 -0.10009663 -0.066046774 -0.07706699 -0.120155334 -0.05324115 0.011588408
0.07368029 -0.019999718 0.05077989 -0.11343684 -0.0023826072 0.008766072 -0.011565595 -0.10666841
-0.04634907 -0.10833762 -0.07473496 -0.041686714 -0.04735408 0.07519012 -0.11579407 0.034504596
0.03153749 0.013615502 -0.018964507 -0.00676465 0.010968179 0.036361363 -0.09435655 0.041206695
-0.034243833 0.086900525 0.08720543 0.02210149 -0.048701305 -0.06380646 0.10016955 0.023997217
-0.065377325 -0.050913848 0.09929987 -0.052339002 0.035836484 -0.072531335 0.025237272 0.05795056
0.07573557 0.07075911 0.034911457 0.039669402 0.015782753 -0.05777696 0.08362711 -0.1184472
-0.044359706 -0.07765033 -0.04979697 0.03118116 -0.08222338 -0.13140838 -0.13803987 -0.07616583
0.03698833 -0.055898294 0.05204845 -0.04689694 -0.019255117 -0.02931669 -0.073659636 0.055738922
0.01333834 -0.07161341 0.054102127 -0.10315952 0.011026233 0.08375514 0.0730892 -0.058672484
-0.13097711 -0.13130866 -0.124929324 0.0071268044 -0.06834458 -0.08959492 -0.0994188 -0.047041908
0.008833657 0.022764245 -0.109907225 -0.12938105 0.045605198 -0.12682699 -0.02573033 0.079529546
-0.0862665 -0.08952415 -0.048456855 0.08637325 -0.063231714 0.08273571 0.060498513 0.018474534
0.05487657 -0.08996842 -0.11493834 -0.081566185 -0.08930594 -0.08940597 -0.049254127 0.021745434
0.070281796 3.3243791e-06 -0.021481816 -0.10020355 0.08273013 -0.029248001 -0.043296512 -0.053957235
0.009554618 -0.11195373 -0.119833186 -0.122698724 0.025013387 -0.10712445 -0.015228044 0.06443234
-0.07626748 -0.08223588 -0.11206308 -0.03036058 -0.11818474 0.028576285 -0.070034474 0.34541392
0.19945784 0.33385935 0.65047336 0.63474476 -0.05822951 -0.512461 0.059220634 -0.46329945
-0.15724598 -0.23351836 0.023390595 0.32724544 -0.06649994 0.13826804 0.137499 0.08953711
-0.3560447 -0.36909407 0.2670759 0.08962565 -0.304418 -0.15330707 0.046218235 0.07656282
00000000: 2390 aa3c a6e1 8e3d 3929 e7bd 48bb bcbd
00000010: cb7e fd3c a191 443c eb78 dabc 6143 553d
00000020: 7d14 933d a9c1 d23d 507d d6bd 3370 c33c
00000030: 211a 64bd 2508 013d 0d96 22bd 2ce1 be3d
00000040: 3abf dcbd 0787 dd3c 7bf8 8439 e41d 7b3d
00000050: 3cbd b8bd bac0 c23c 23d0 4cbd 3539 2ebb
00000060: bcf2 d2bd f2ca 3f3c a567 a8bd 6cb9 babc
00000070: 537a 54bd 06b2 74bc 8b61 5abd 814b 043d
00000080: d5ff dbbd 1e1c c7bc 739a 83bc 13c3 c13d
00000090: ed41 363d 3b5c 11bb 7fed 7c3c 6229 aebd
000000a0: 5684 b6bd e0bb ffbc ccb7 713c 238a 3c3d
000000b0: 9ce9 9fbd c2b9 55bd 77c9 bc3d 5d83 e0bc
000000c0: b02d abbd 55a0 0d3c 3f4f 6cbd f570 a9bc
000000d0: fef1 2fbd 4a8d 3a3c 963d 7bbc 38c4 513d
000000e0: 4069 5838 de4c 643d 8413 cabd f6dc 43bd
000000f0: 9d1f 44bd 94e9 24bd c61a b9bd 1715 e8bd
00000100: d9a7 f6bb 4977 76bd a6c4 4fbc d456 a4bc
00000110: 50f5 7d3d ea03 c03d a559 e0bd 87d9 a7bd
00000120: 868c 91bd 6103 3dbd 2194 d4bd 50e7 c43d
00000130: fc12 583d b152 5ebd ce3a a9ba 9f00 52bc
00000140: 4c95 d9bd 9aec 73bc 9793 cdbb 4c3a c1bd
00000150: 93b8 453d 994e aebd e113 dfbd 67d4 773d
00000160: 0a0a 28bd 37d5 243d 6a00 913d ca98 adbd
00000170: c17f 1b3d 3d47 85bd b51a 8dbd f7a5 4dbc
00000180: e849 3c3d f6ca 28bc 76ff ccbd 8843 87bd
00000190: 4cd5 9dbd 0014 f6bd 6413 5abd 4edd 3d3c
000001a0: b1e5 963d 73d6 a3bc 93fe 4f3d 9351 e8bd
000001b0: 8425 1cbb 929f 0f3c 9f7d 3dbc f874 dabd
000001c0: 86d8 3dbd 1de0 ddbd a50e 99bd b0bf 2abd
000001d0: 5af6 41bd 47fd 993d 7125 edbd b154 0d3d
000001e0: 752d 013d 8e13 5f3c 745b 9bbc ffa9 ddbb
000001f0: e1b3 333c a7ef 143d 023e c1bd 5ac8 283d
00000200: 4343 0cbd e7f8 b13d c398 b23d 2f0e b53c
00000210: 057b 47bd f6ac 82bd b125 cd3d d095 c43c
00000220: 8ce4 85bd 0a8b 50bd bb5d cb3d 6c61 56bd
00000230: 47c9 123d 4f8b 94bd 65be ce3c 915d 6d3d
00000240: 401b 9b3d 27ea 903d 51ff 0e3d 627c 223d
00000250: d54a 813c 89a7 6cbd b144 ab3d 7294 f2bd
00000260: 86b2 35bd 2307 9fbd e8f7 4bbd a26f ff3c
00000270: bb64 a8bd eb8f 06be 535a 0dbe d5fc 9bbd
00000280: 1381 173d 9cf5 64bd c130 553d 0117 40bd
00000290: e8bc 9dbc 8e29 f0bc ddda 96bd 7f4e 643d
000002a0: 0e89 5a3c 0daa 92bd 319a 5d3d 4c45 d3bd
000002b0: 60a7 343c d187 ab3d caaf 953d 8f52 70bd
000002c0: dd1e 06be c775 06be f2da ffbd f887 e93b
000002d0: 3ef8 8bbd 8b7d b7bd 159c cbbd 04af 40bd
000002e0: 0bbb 103c 157c ba3c 0a17 e1bd 777c 04be
000002f0: 84cc 3a3d efde 01be 6ac8 d2bc 63e0 a23d
00000300: 7eac b0bd 7058 b7bd b27a 46bd 75e4 b03d
00000310: a17f 81bd 5771 a93d 4acd 773d e857 973c
00000320: 41c6 603d 5d41 b8bd cb64 ebbd 2c0c a7bd
00000330: 08e6 b6bd 7a1a b7bd b2be 49bd 7b23 b23c
00000340: e7ef 8f3d 6618 5f36 a2fa afbc 8537 cdbd
00000350: 6a6e a93d 8199 efbc af57 31bd 4302 5dbd
00000360: f98a 1c3c ff47 e5bd 1a6b f5bd 7849 fbbd
00000370: e0e8 cc3c 1064 dbbd 0c7f 79bc 1af5 833d
00000380: 2032 9cbd 496b a8bd 5481 e5bd c0b6 f8bc
00000390: d70a f2bd d018 ea3c 3c6e 8fbd 18da b03e
000003a0: ad3e 4c3e 9def aa3e 6c85 263f a27e 223f
000003b0: 1182 6ebd a530 03bf 5691 723d 9635 edbe
000003c0: 1705 21be 701f 6fbe a29d bf3c b78c a73e
000003d0: 1f31 88bd 2396 0d3e 8acc 0c3e 3b5f b73d
000003e0: 7e4b b6be e6f9 bcbe 2cbe 883e a78d b73d
000003f0: addc 9bbe 87fc 1cbe 554f 3d3d f8cc 9c3d

net.0.bias f4 [128]
-0.012243734 0.009821815 -0.00021938318 0.059458386 0.009170107 -0.08233034 -0.014187908 0.053692717
-0.06499054 -0.00013339863 0.0034292764 0.085956894 0.09117496 0.02599167 -0.13596132 0.04137423
-0.11790081 -0.008997234 -0.042440947 -0.087309666 0.042982318 -0.05868627 0.07748027 -0.08495984
-0.011289317 0.05345145 -0.08859293 -0.056285154 0.05942064 -0.056664668 -0.06683861 -0.0008593881
-0.058825187 0.013797673 -0.018552955 -0.11809106 -0.09232436 -0.016963841 -0.08396705 0.0066970596
0.07095589 0.08545279 -0.04122045 0.014735163 -0.038487684 0.04048513 -0.10396601 -0.026659407
-0.061447084 0.06530684 0.059683908 -0.13629632 -0.09463354 -0.0725373 -0.02886237 -0.12876704
0.085869566 -0.06537494 -0.09661872 0.10509008 -0.047732748 -0.0306656 0.067096956 0.06864853
0.08400468 -0.0590147 0.08759462 -0.11408257 0.0027788905 -0.07045703 -0.05664974 -0.1198993
-0.084827885 0.06359044 0.061495133 0.054462966 -0.08592704 0.01626337 -0.0024034355 0.094366014
0.056079376 0.08251405 -0.112378396 0.04574831 0.028072877 -0.07495664 -0.008801281 0.08995823
0.05205642 -0.030322425 0.09211778 0.034095652 0.09618274 -0.09556468 -0.013439523 0.004637582
0.044506337 -0.033764314 0.03466413 -0.035284378 0.02034373 -0.062211778 0.008156841 -0.07100196
0.08833356 0.054206733 0.008735838 -0.061435074 -0.04623065 0.0390839 -0.0015820179 -0.0049046827
0.028417585 0.011800427 0.00060706644 -0.05919345 -0.07548112 -0.058362946 -0.02295295 -0.10736733
-0.055745933 0.0971378 -0.08866434 -0.11946516 -0.0068625803 0.06990119 -0.12152235 -0.0018617441
00000000: f199 48bc aeeb 203c 390a 66b9 a38a 733d
00000010: 373e 163c cf9c a8bd 6674 68bc e5ec 5b3d
00000020: c319 85bd ece0 0bb9 b6bd 603b 2b0a b03d
00000030: f0b9 ba3d 7cec d43c 7239 0bbe 0678 293d
00000040: fb75 f1bd 2269 13bc 8fd6 2dbd 69cf b2bd
00000050: 3a0e 303d 0461 70bd faad 9e3d 6dff adbd
00000060: d4f6 38bc e8ef 5a3d 3670 b5bd 438b 66bd
00000070: 0f63 733d 3619 68bd aee2 88bd 8f48 61ba
00000080: aef2 70bd a30f 623c 5efc 97bc bad9 f1bd
00000090: 8e14 bdbd c1f7 8abc ebf6 abbd 0273 db3b
000000a0: 5251 913d df01 af3d c6d6 28bd c16b 713c
000000b0: 43a5 1dbd bcd3 253d 22ec d4bd d464 dabc
000000c0: f0af 7bbd 98bf 853d 1d77 743d 4391 0bbe
000000d0: 3bcf c1bd 708e 94bd c770 ecbc 82db 03be
000000e0: 62dc af3d 4ce3 85bd 09e0 c5bd 7839 d73d
000000f0: 6a83 43bd 6d36 fbbc 216a 893d 9a97 8c3d
00000100: a50a ac3d 66b9 71bd cf64 b33d 1fa4 e9bd
00000110: 0c1e 363b c64b 90bd 8f09 68bd c48d f5bd
00000120: 3eba adbd b43b 823d 52e2 7b3d 8f14 5f3d
00000130: 84fa afbd c23a 853c f582 1dbb f842 c13d
00000140: 7db3 653d 20fd a83d a526 e6bd 9462 3b3d
00000150: 17f9 e53c de82 99bd 4033 10bc 053c b83d
00000160: 1d39 553d bc66 f8bc 3fa8 bc3d e2a7 0b3d
00000170: 75fb c43d 6ab7 c3bd 7231 5cbc dcf6 973b
00000180: 474c 363d 734c 0abd fafb 0d3d 5a86 10bd
00000190: e5a7 a63c c7d1 7ebd 45a4 053c 7a69 91bd
000001a0: 3ae8 b43d e107 5e3d c320 0f3c 58a3 7bbd
000001b0: 5a5c 3dbd 7116 203d b65b cfba 76b7 a0bb
000001c0: ffcb e83c 9456 413c 8a23 1f3a d574 72bd
000001d0: d895 9abd fc0d 6fbd d307 bcbc 67e3 dbbd
000001e0: d955 64bd 2ff0 c63d a695 b5bd 26aa f4bd
000001f0: 7fdf e0bb 5b28 8f3d b6e0 f8bd c405 f4ba

net.2.weight f4 [64, 128]
-0.0055509927 0.038601834 0.043069515 -0.22332443 0.044164058 -0.049338754 0.06504358 -0.10357106
0.075606376 -0.00837716 -0.0058881887 0.047597837 -0.013596826 -0.019309768 -0.003995521 0.03584892
-0.019946206 0.02859493 0.04730259 -0.010995407 0.04958331 -0.06838787 0.043141466 0.031430665
-0.11038837 -0.068800464 0.06373096 -0.037504673 0.020833576 -0.017531104 0.05697356 -0.021924974
0.025519473 -0.05999806 -0.006266282 0.08317182 0.034037508 -0.02383812 -0.038240656 -0.0033262714
0.008879561 -0.08270182 -0.07960701 -0.032541413 0.01130036 0.058513332 -0.060080048 -0.08723208
0.041547615 0.027175866 0.035985842 -0.04067212 -0.05072447 -0.047542024 0.035920683 0.03571976
-0.085377425 0.00040014216 -0.0055793365 -0.23158345 0.032820236 -0.021619154 -0.013750799 -0.15664746
-0.057997167 -0.11142263 0.043204576 0.0051532635 -0.023007711 -0.0018263177 0.06881045 0.055306334
-0.075596705 0.032186884 -0.018347481 -0.09556916 -0.096160784 0.04281086 -0.017706923 -0.026608769
0.08093634 -0.054500077 -0.06011679 -0.077596195 0.06519087 0.04688077 -0.008380943 -0.092687294
-0.08050228 -0.072361074 -0.073661335 -0.08758792 0.06958353 -0.2100723 -0.055709008 -0.071198784
-0.075694755 0.067079276 -0.047456793 0.04987426 -0.026051113 0.008042072 -0.077011466 -0.07607515
0.005557673 0.030782646 -0.07358243 -0.071641475 -0.013230453 -0.039552525 -0.16600536 0.018891102
-0.010619984 -0.06891272 -0.07093011 -0.0951457 0.07995653 -0.05150806 -0.061468754 -0.11660015
-0.22839652 -0.048260804 -0.08837176 0.055596676 -0.056738056 0.020829888 -0.014718739 0.060955584
-0.006334829 0.012663864 0.05018384 -0.0781351 -0.056610886 0.056313384 -0.08440773 -0.049099535
-0.008773298 0.061470557 -0.044424318 -0.08660353 0.0054150904 0.0045968303 0.026273292 -0.06277128
-0.07605771 -0.030002633 0.009007951 0.060870796 0.018819235 -0.007373707 -0.011758621 -0.024532437
-0.107946284 0.0019271646 0.052272934 -0.060483545 0.057610516 -0.049491923 -0.08276723 -0.049352296
0.027142612 0.043150343 -0.055501845 0.08620776 0.0828394 0.013056925 -0.058687937 0.06950247
-0.07768038 0.08552173 -0.033794068 -0.055615388 -0.07946546 0.083929874 -0.10374256 0.005351206
0.034060437 -0.11156686 0.03394014 -0.07849396 0.05072297 -0.06786886 0.013516747 -0.0691916
0.029945536 0.082548395 0.08352112 -0.00934233 -0.042998236 -0.07309537 -0.03530711 -0.07891504
0.013942017 -0.032237206 -0.07046916 -0.08055543 0.04401547 0.032243088 -0.029102545 -0.11421056
-0.016068486 0.0057560583 0.0016664864 -0.05078367 -0.024244431 -0.044696152 -0.057589706 0.018000813
-0.073494725 -0.043765128 0.04573936 0.07380441 0.05962095 -0.01898863 -0.08144499 -0.06776987
-0.05896723 -0.060749773 -0.026770322 -0.051381845 0.025818443 -0.12045597 0.004156722 -0.028200526
-0.08476554 -0.040946472 -0.006268016 -0.01821574 0.022679009 -0.064565375 -0.011687205 -0.05993096
-0.06712682 -0.06320861 -0.07946467 0.02673913 -0.013353449 -0.05209121 -0.11454261 0.03649684
-0.014464493 0.08443607 -0.04005095 0.01692594 0.08582874 -0.04589341 -0.13653412 0.022789003
-0.0043153246 -0.057236526 -0.047586467 0.072219595 0.0413131 0.05307801 -0.008704778 -0.01352583
00000000: 1ae5 b5bb f51c 1e3d a969 303d 29af 64be
00000010: 5fe5 343d 6f17 4abd 9235 853d 101d d4bd
00000020: 84d7 9a3d 5b40 09bc b5f1 c0bb f3f5 423d
00000030: 39c5 5ebc 852f 9ebc dcec 82bb 51d6 123d
00000040: 3a66 a3bc ea3f ea3c 5cc0 413d 1426 34bc
00000050: de17 4b3d f10e 8cbd 1bb5 303d 71bd 003d
00000060: 4c13 e2bd 42e7 8cbd 6185 823d 809e 19bd
00000070: 2dab aa3c 649d 8fbc 1c5d 693d 019c b3bc
00000080: 370e d13c 87c0 75bd 6255 cdbb fd55 aa3d
00000090: ea6a 0b3d 2948 c3bc 3ca2 1cbd 93fd 59bb
000000a0: 947b 113c 925f a9bd 0009 a3bd 254a 05bd
000000b0: 2525 393c adab 6f3d 7f16 76bd bca6 b2bd
000000c0: d52d 2a3d ec9f de3c e465 133d cf97 26bd
000000d0: 76c4 4fbd 6dbb 42bd 9121 133d e24e 123d
000000e0: 5cda aebd 2cca d139 ded2 b6bb 3624 6dbe
000000f0: 836e 063d a71a b1bc 084b 61bc 3168 20be
00000100: 708e 6dbd 8c31 e4bd 48f7 303d b5dc a83b
00000110: ab7a bcbc 0e61 efba 7eec 8c3d e588 623d
00000120: 72d2 9abd 65d6 033d 754d 96bc c4b9 c3bd
00000130: f2ef c4bd 715a 2f3d 1c0e 91bc a2fa d9bc
00000140: f4c1 a53d 793b 5fbd 063d 76bd c1ea 9ebd
00000150: ca82 853d 0d06 403d 3950 09bc d6d2 bdbd
00000160: 61de a4bd 0b32 94bd c1db 96bd 4c61 b3bd
00000170: cf81 8e3d 311d 57be 212f 64bd abd0 91bd
00000180: da05 9bbd dc60 893d 0e62 42bd f448 4c3d
00000190: 2569 d5bc e5c2 033c 30b8 9dbd 4acd 9bbd
000001a0: 241d b63b e32b fc3c 63b2 96bd c4b8 92bd
000001b0: 8bc4 58bc d401 22bd 4ffd 29be 83c1 9a3c
000001c0: 71ff 2dbc 1d22 8dbd ce43 91bd c0db c2bd
000001d0: 40c0 a33d 1efa 52bd a9c6 7bbd 0fcc eebd
000001e0: c7e0 69be 1fad 45bd 41fc b4bd 57b9 633d
000001f0: 2a66 68bd 71a3 aa3c de26 71bc 90ac 793d
00000200: 6694 cfbb 187c 4f3c 928d 4d3d 4c05 a0bd
00000210: d1e0 67bd dda8 663d f6dd acbd 981c 49bd
00000220: e1bd 0fbc 8dc8 7b3d 46f6 35bd 315d b1bd
00000230: 1271 b13b 02a1 963b 163b d73c 3b8e 80bd
00000240: 25c4 9bbd 15c8 f5bc 1696 133c a853 793d
00000250: cc2a 9a3c 239f f1bb 3ba7 40bc 40f8 c8bc
00000260: f112 ddbd ea98 fc3a 251c 563d 98bd 77bd
00000270: 01f9 6b3d 0bb8 4abd de81 a9bd a225 4abd
00000280: 2f5a de3c 6abe 303d e755 63bd b28d b03d
00000290: b4a7 a93d b6ec 553c c362 70bd 5057 8e3d
000002a0: e416 9fbd 0426 af3d a66b 0abd f6cc 63bd
000002b0: c9be a2bd 6de3 ab3d fb76 d4bd 2b59 af3b
000002c0: f582 0b3d 2a7d e4bd d104 0b3d 71c1 a0bd
000002d0: e4c2 4f3d d4fe 8abd 5975 5d3c 53b4 8dbd
000002e0: 5750 f53c 220f a93d 1f0d ab3d 9210 19bc
000002f0: eb1e 30bd 06b3 95bd 309e 10bd 359e a1bd
00000300: 0f6d 643c 290b 04bd 2352 90bd 3ffa a4bd
00000310: 9149 343d 5411 043d 7668 eebc 3ae7 e9bd
00000320: 0fa2 83bc 519d bc3b 016e da3a 8a02 50bd
00000330: 429c c6bc 5013 37bd 2fe3 6bbd 7176 933c
00000340: 6784 96bd 1043 33bd 3259 3b3d c426 973d
00000350: 1935 743d 0b8e 9bbc a2cc a6bd eeca 8abd
00000360: 9f87 71bd c1d4 78bd 6f4d dbbc c575 52bd
00000370: 3381 d33c 9fb1 f6bd 1d35 883b ca04 e7bc
00000380: 8e99 adbd 7db7 27bd ee63 cdbb 2d39 95bc
00000390: 54c9 b93c da3a 84bd b17b 3fbc 2b7a 75bd
000003a0: c979 89bd 8473 81bd 5fbe a2bd 050c db3c
000003b0: 6dc8 5abc 985d 55bd 5195 eabd b67d 153d
000003c0: 7bfc 6cbc d1ec ac3d 770c 24bd 45a8 8a3c
000003d0: fac6 af3d bafa 3bbd 9acf 0bbe 01b0 ba3c
000003e0: 9167 8dbb d970 6abd 07ea 42bd dee7 933d
000003f0: ed37 293d 5468 593d 7c9e 0ebc 719b 5dbc

net.2.bias f4 [64]
-0.09726946 -0.09678926 -0.11549332 2.5158262 -0.09773188 -0.089324884 -1.2096045 -0.06771033
-0.08350165 -0.12957591 -0.19629242 2.0402815 -0.22337551 -0.19847415 -0.9313389 -0.1341491
-0.17455816 -0.17548966 -0.03876373 -0.11584928 -0.15359914 -0.005591785 -1.6419151 -0.027111644
-0.106111825 -0.14096749 0.24761814 -2.0516355 -0.12492314 -0.13293642 -0.18538755 -0.20474985
-0.0852853 -0.18742707 1.1167629 -0.29479972 -0.040886976 -0.20859115 -0.05290457 4.1616573
-0.8730458 -0.0712007 -0.1303863 -0.1505225 -2.5725884 -0.083535515 -1.6582848 -0.13730086
-0.031575322 -0.123809926 1.9332958 -2.5216398 -0.7785172 -0.052454416 -0.12035619 -0.93396366
-0.08127045 2.3893626 -0.17646556 -0.1282979 0.09641672 -0.15500936 -0.00623488 -0.108505756
00000000: 3635 c7bd 7339 c6bd c387 ecbd 4c03 2140
00000010: a727 c8bd f7ef b6bd 52d4 9abf b7ab 8abd
00000020: ea02 abbd 8caf 04be e100 49be f993 0240
00000030: 8dbc 64be cf3c 4bbe 3a6c 6ebf 625e 09be
00000040: 60bf 32be 90b3 33be b8c6 1ebd 6342 edbd
00000050: 1849 1dbe 4b3b b7bb 462a d2bf 3d19 debc
00000060: 2851 d9bd c859 10be 9c8f 7d3e ff4d 03c0
00000070: b4d7 ffbd 7c20 08be 3cd6 3dbe f2a9 51be
00000080: 0faa aebd e2ec 3fbe 16f2 8e3f fdef 96be
00000090: 1a79 27bd eb98 55be 76b2 58bd 4c2c 8540
000000a0: ee7f 5fbf acd1 91bd fc83 05be 9222 1abe
000000b0: 4aa5 24c0 ab14 abbd ad42 d4bf 9998 0cbe
000000c0: 2055 01bd 0f90 fdbd 3d76 f73f 8c62 21c0
000000d0: e74c 47bf 71da 56bd 4e7d f6bd 3e18 6fbf
000000e0: 1f71 a6bd 51eb 1840 63b3 34be 8660 03be
000000f0: 2176 c53d c6ba 1ebe f74d ccbb 4438 debd

net.4.weight f4 [1, 64]
0.059869837 0.037205786 0.012026255 -0.015260123 -0.0030718131 0.0024880467 0.019928012 -0.012416344
0.004734418 -0.031543523 0.008657882 -0.019867258 0.005707294 0.027444616 -0.029059676 0.01026232
-0.012256657 0.008875325 0.026681602 -0.018359505 0.005360682 0.05024512 -0.018997628 -0.028283851
0.0019469394 -0.009612156 -0.018975586 0.017498521 0.0167063 -0.025961312 -0.008484619 -0.007383211
0.003974889 -0.026121577 -0.04451763 0.026523974 -0.009973702 0.013983182 0.027522061 -0.019463314
0.018901808 0.029445535 0.015276048 -0.003428783 0.019801 -0.0050570727 0.04908688 -0.025337826
0.08825057 0.10894929 -0.015319268 0.02445644 0.025891185 0.057953827 -0.017318824 -0.015803564
0.02343042 -0.0385898 0.008162824 0.022682983 -0.014499136 0.029761162 0.04841953 0.03686015
00000000: 133a 753d 1865 183d c509 453c 9805 7abc
00000010: 7950 49bb 7f0e 233b 1240 a33c ec6d 4bbc
00000020: 2d23 9b3b c833 01bd cad9 0d3c a9c0 a2bc
00000030: 4104 bb3b 88d3 e03c 8f0e eebc 4a23 283c
00000040: 25d0 48bc d069 113c 6093 da3c ac66 96bc
00000050: a9a8 af3b d4cd 4d3d eaa0 9bbc 89b3 e7bc
00000060: 7230 ff3a 4e7c 1dbc b072 9bbc 0f59 8f3c
00000070: a7db 883c d1ac d4bc 1203 0bbc ddee f1bb
00000080: c93f 823b ebfc d5bc 1e58 36bd ce48 d93c
00000090: bd68 23bc b719 653c f275 e13c 8771 9fbc
000000a0: f7d7 9a3c c337 f13c 6448 7a3c 6fb5 60bb
000000b0: b535 a23c cdb5 a5bb 530f 493d 4691 cfbc
000000c0: b7bc b43d ce20 df3d abfd 7abc df58 c83c
000000d0: c019 d43c fe60 6d3d 35e0 8dbc 7a76 81bc
000000e0: 27f1 bf3c 5710 1ebd 5ebd 053c aad1 b93c
000000f0: c98d 6dbc aecd f33c 8f53 463d abfa 163d
