src/sliding_tiles/7x7_mse.pth (torch, 321344 bytes, 7 tensors)

net.0.weight f4 [256, 149]
000000 38 13 4e 3d 66 38 32 bd 83 10 92 3d 1c 8f 6d 3d
       0.050311297 -0.043510817 0.071320556 0.057997808
000010 ab ac 3a bc 3a 2d 2d bc 4e 0f 0a bc 88 94 94 3b
       -0.011393706 -0.010569865 -0.0084265005 0.004534308
000020 e0 44 73 3d 5d 5e 84 3d c4 0c d6 bc 60 2e 56 3d
       0.059391856 0.06463311 -0.026129134 0.05229032
000030 e5 4d 5d bd 10 20 69 bc 63 71 55 3d d5 72 a6 bd
       -0.054029364 -0.014228836 0.052110087 -0.08127371
000040 d5 46 8f bd b3 e0 8a 3a 87 f6 a6 3c e3 e2 19 3d
       -0.06995932 0.001059553 0.020381225 0.03756989
000050 ed 62 39 3c e2 a3 30 3c 7a 4e ae bc 3f 59 68 bd
       0.01131509 0.01078126 -0.021277655 -0.056725737
000060 56 67 89 bd 0a 5e a7 3d 0b fb a5 bd 3f d9 54 bb
       -0.06709163 0.081722334 -0.08104523 -0.0032478122
000070 63 4a f0 3c fc c0 09 b8 68 f5 56 bd 97 ba 8e bd
       0.029332345 -3.2843076e-05 -0.05248013 -0.06969183
000080 4e 8f 1a 3c 12 04 58 3d 41 ce 39 3d 00 ac 80 bd
       0.009433581 0.052738257 0.045362715 -0.062828064
000090 00 79 8f bd 2f bc 05 bd eb c0 49 bd bd 28 68 bc
       -0.07005501 -0.03265017 -0.049256247 -0.014169869
0000a0 d6 00 0d bc 75 79 8a 3d 6f c5 ee 3b 11 e8 78 3d
       -0.008606156 0.06761447 0.0072867195 0.06076819
0000b0 7a b6 e9 3c e2 ee 7b 3d 83 a9 df 3b af cf 4a 3c
       0.028529394 0.061507113 0.0068256273 0.012378617
0000c0 25 c0 65 bc c6 4a aa 3c 67 fd 5b 3d ad 53 1f 3d
       -0.014022862 0.020787608 0.05370846 0.03889816
0000d0 96 68 9c bd 92 57 99 3d b6 4c 99 bd 26 69 a4 3d
       -0.07637136 0.07487406 -0.074853346 0.08027868
0000e0 85 9c 84 3d 39 e0 8e bd e1 a1 83 3d a3 7a 4d 3c
       0.06475166 -0.06976361 0.0642736 0.012541446
0000f0 a5 88 2f bd d1 e2 17 3d 1f 2e f6 bb ee 9c 2a bd
       -0.042854924 0.037081543 -0.0075128223 -0.041653566
000100 13 42 b3 3c 55 ad c1 bc 93 94 9f bd 91 15 73 3d
       0.021882093 -0.023642221 -0.0779201 0.05934674
000110 59 59 43 bd bc 69 86 bd 04 c3 7b 3d 46 0b 91 bd
       -0.04769263 -0.06563136 0.06146528 -0.07082228
000120 c1 d4 c7 bc be 69 99 bd fe 84 9b bc e6 ca 53 bb
       -0.024393441 -0.07490872 -0.018984314 -0.0032316982
000130 3c 7a 99 bd 09 c9 5a bd 52 e8 d0 3c a7 e0 a3 bd
       -0.074940175 -0.05341438 0.025501404 -0.080018334
000140 80 9a 34 bd 2e 6e 38 bd a8 bd 3a bd 03 98 13 bd
       -0.044092655 -0.04502695 -0.045591027 -0.03603364
000150 e1 c7 55 3d 9d 39 f0 3c 14 d0 40 bc 4d a6 76 bc
       0.052192573 0.029324347 -0.01176836 -0.015054298
000160 33 3a 65 bd b7 86 64 bd 1d 7b 0e 3d 96 c5 7d 3d
       -0.055963706 -0.055792537 0.03478538 0.06195601
000170 0d 92 86 3d 55 60 41 bd 2b 47 30 3d 73 e9 51 bd
       0.06570826 -0.04721101 0.04303662 -0.051248025
000180 a8 e2 d7 bc e2 fc 83 bd 2b 05 ce 3a 17 b5 9e bd
       -0.026353195 -0.06444718 0.0015718093 -0.07749384
000190 5f ff 2a bc d0 8b 8d bd bd 22 16 3d da 4b 99 3c
       -0.010436862 -0.06911433 0.036654223 0.018712927
0001a0 7f 58 48 3d 43 f2 56 bd ef f3 a3 bd 29 7b d2 bc
       0.04891252 -0.052477133 -0.08005511 -0.025693493
0001b0 c8 d9 02 3c 67 d4 9b 3d a1 d0 45 3d 8f f8 94 3a
       0.007986493 0.07608872 0.048294667 0.001136558
0001c0 54 e9 72 bd 3c 26 2a 3c 4b 7b aa 3c 77 68 39 3d
       -0.05930455 0.010385092 0.020810744 0.04526564
0001d0 7d d3 92 bc 1a af 9b bd 59 1e 7a 3d ab 81 12 bd
       -0.017923111 -0.07601757 0.061064098 -0.035768192
0001e0 84 d9 20 3d 69 9c 53 bc 14 32 b7 ba 5a c3 09 3d
       0.03926994 -0.012915709 -0.0013976716 0.033633567
0001f0 bf 5a a1 bd d4 b1 3a bc 27 5c a3 3b d7 47 e5 3b
       -0.078786366 -0.011394937 0.0049853506 0.0069970894
000200 13 ca 87 3d a9 c4 a0 3d 7b b4 5c 3d d1 10 80 3d
       0.066303395 0.0785001 0.053883057 0.062532075
000210 b2 4d a6 3d d9 1e 8a bc 8d f8 d7 bc c8 1f 0d 3d
       0.08120288 -0.016860412 -0.026363635 0.034454137
000220 ec 33 e2 bc a3 76 6b bd ad eb 39 3d 6d a4 80 bc
       -0.027612649 -0.057486188 0.045390774 -0.015703404
000230 ab 41 a7 bc dc c2 0e bd f0 39 90 bd d5 13 58 bd
       -0.020417055 -0.0348538 -0.07042301 -0.05275329
000240 a6 ce 30 bc 04 93 8d 3d 89 a6 dc 3b 8d 11 28 3d
       -0.010791456 0.06912807 0.0067337197 0.041032363
000250 b0 16 92 bd 1a 34 56 bc d3 b8 83 bd 47 27 5c bc
       -0.071332335 -0.013073945 -0.06431737 -0.013437099
000260 57 f0 7f bd 05 3c 22 bd ab 0c b3 bc 5c 93 8c bd
       -0.062485065 -0.03960802 -0.021856626 -0.06864044
000270 c4 02 94 bd 33 9e 91 bb b3 3d 99 bd 6e cb bd 3c
       -0.0722709 -0.0044439076 -0.07482471 0.023168292
000280 46 62 27 3c 45 6d 85 bd e0 53 13 bd 8e 96 a7 bd
       0.010216301 -0.06514982 -0.03596866 -0.08183013
000290 dd 1f 25 bd a6 fa 04 bd 6c b1 59 bd a4 4e 28 bd
       -0.04031359 -0.0324656 -0.05314772 -0.041090623
0002a0 07 2b 6a 3d 0d 40 85 bd 14 ca e3 bc 20 62 0c 3d
       0.05716994 -0.06506357 -0.02780632 0.034273267
0002b0 51 a6 31 bd 5c c1 60 bd d3 86 4f 3d ca 55 ed bc
       -0.043371502 -0.054871902 0.050665688 -0.028971571
0002c0 df 09 a1 3c 3c 27 fa bb c0 d8 2a 3d fd b5 09 3d
       0.019658027 -0.0076340716 0.041710615 0.033620823
0002d0 23 7a 37 bc c1 3e 3d bd 73 40 90 bd 38 4e 7b b9
       -0.011198553 -0.046202425 -0.07043543 -0.00023966364
0002e0 12 7a 8e bd 4b 1b 66 3d 49 d1 33 3c 1f 70 5a bd
       -0.06956877 0.056178372 0.01097519 -0.053329583
0002f0 24 7e 5a bd e4 4d 64 3d 3d b6 02 3d 63 f7 a3 bd
       -0.053342953 0.055738345 0.031912077 -0.0800617
000300 f8 14 0a bd a1 3a 36 3d e8 a6 9f bd ce 50 a9 3c
       -0.033711404 0.044489507 -0.07795507 0.020668413
000310 1f 89 94 3d b8 c3 8c bd 9e c3 56 bd f7 c5 41 3d
       0.07252716 -0.06873268 -0.05243265 0.047307935
000320 d6 a7 65 bc 69 9f eb 3a 64 af 5b 3c 7e a6 12 bd
       -0.014017066 0.0017976585 0.013408516 -0.03580331
000330 54 07 ee bc 7b da 7a 3d 3d b3 8e bd b5 48 49 3d
       -0.029056229 0.061243515 -0.06967781 0.049141604
000340 70 66 17 bb 79 c7 1a bd be 88 8f bd 2f 46 66 3d
       -0.002310183 -0.03778789 -0.070085034 0.056219276
000350 2d 52 ec bb 4f 8b b1 3c 58 c2 84 3d 64 fd 10 3d
       -0.0072119446 0.021672873 0.06482381 0.035397902
000360 1d fb 94 3d 4e 35 37 bd 2d ab fd b9 c3 a2 a5 bc
       0.072744586 -0.04472857 -0.00048383456 -0.020219212
000370 0a 78 71 bd b5 88 96 bd d3 28 7f bd f5 00 8c bc
       -0.05895237 -0.073502935 -0.062294792 -0.0170903
000380 ce b4 61 bc 20 69 98 bd 0c 92 12 3d b3 89 0f 3d
       -0.013776017 -0.07441926 0.035783812 0.03504343
000390 d7 09 92 3d 7d 60 65 bb 42 6a 4b 3d af 6f 9a 3c
       0.07130783 -0.0035000138 0.049661882 0.018852083
0003a0 cd 90 10 bc b9 43 85 bd 98 8f 94 bc 15 2a 0a 3d
       -0.008823586 -0.06507058 -0.018134877 0.03373154
0003b0 f6 99 f4 3b 9c e5 2f 3d 92 f0 a1 bd 65 19 7f bc
       0.0074646426 0.042943582 -0.07907213 -0.015570019
0003c0 0b 4f 4f bd 22 df 18 bd 3b 2a 1b bd 8f 0b 25 bc
       -0.05061249 -0.03732217 -0.03788207 -0.010073557
0003d0 6a fd 16 3c a7 ec 5f bd 91 87 e4 bc c5 3b b6 bd
       0.009215692 -0.05466905 -0.027896674 -0.08898119
0003e0 70 b1 8f 3c 5e ce 92 bd 98 fb 8e bd 0b 8a f8 bc
       0.017540663 -0.07168268 -0.069815814 -0.030339262
0003f0 66 b9 9e bd f5 c7 1c bd ff 08 b4 3c 45 ef 2c 3d
       -0.07750206 -0.03827663 0.021976946 0.042220373

net.0.bias f4 [256]
000000 a1 8b 97 bc 39 a3 85 3d 48 50 ab 3c 9e 4a a2 bd
       -0.018499197 0.06525273 0.020912305 -0.07924388
000010 61 9b 31 3b 38 81 8e bd b7 d8 86 3d fe fd 69 bc
       0.002710067 -0.0695824 0.06584304 -0.014281748
000020 2e 23 34 bd 39 44 af 3c 26 8b 45 3d d9 51 b5 bd
       -0.043978862 0.021394836 0.048228405 -0.08853502
000030 26 73 95 3b e9 99 51 3c 25 bd 02 bd 0e f6 d4 bd
       0.004560846 0.012793043 -0.031918664 -0.10398494
000040 64 21 25 bd 25 c5 1e bd 5a dc 24 3d b7 f4 67 3b
       -0.040315047 -0.03876223 0.040249206 0.0035393664
000050 63 7d e2 3c ea 9c c8 3c 37 d3 1e bd b0 49 59 bc
       0.02764768 0.024488885 -0.03877565 -0.013262197
000060 b9 e9 e7 bc ca 58 fd bb ba dc 81 3c 06 f9 b3 bd
       -0.02830969 -0.0077315317 0.015852321 -0.08787732
000070 e5 e5 27 bd a2 11 11 bd 25 0e 68 bd 1b 2d 06 3c
       -0.04099073 -0.035417207 -0.056654114 0.008189465
000080 11 5c 43 3d 58 17 e8 bc 0b 17 d4 3c ea 6e d8 bd
       0.047695223 -0.028331444 0.025889894 -0.1056803
000090 af 22 59 bd 5c 59 43 3d 2c 61 ed 3c 6f 5d bc bc
       -0.053011592 0.04769264 0.028977 -0.022993771
0000a0 67 21 84 bd 8b d8 93 bd 43 ee 79 bc 3d 57 6b bd
       -0.064516835 -0.07219037 -0.01525456 -0.057456244
0000b0 4d 73 21 3d 15 aa 98 3d 4e 1f c8 bc 03 46 aa bd
       0.0394166 0.074543156 -0.02442899 -0.08314135
0000c0 67 61 eb bc 5a db ab bd fb 4c 04 3c 4c d9 14 3b
       -0.028732968 -0.08391447 0.008074994 0.0022712527
0000d0 5b 5d 9a bd 3a 20 e8 3c 6a e2 1c bd 30 72 98 bd
       -0.075373374 0.02833568 -0.038301863 -0.074436545
0000e0 f5 36 8c 3c 1f f7 4b 3d e9 d4 97 3c 4e b0 82 bd
       0.01711605 0.04979622 0.01853414 -0.06381284
0000f0 71 c2 b6 bd c2 59 d4 bc 49 60 8b bc 42 06 01 bd
       -0.089238055 -0.025921706 -0.017013686 -0.03150011
000100 ef 03 0e 3d b7 3f c0 bd dc d5 7f ba 5c ae 30 3d
       0.03467172 -0.09387153 -0.00097593456 0.043135032
000110 30 8c 30 bd c3 eb 54 bd 4e 5a 83 bc f2 87 13 3c
       -0.043102443 -0.051982652 -0.016034272 0.00900458
000120 17 57 1d bd b3 b3 ff bc b5 5c b9 3c 5c 20 e2 3a
       -0.038413133 -0.031213617 0.022627214 0.0017252075
000130 d6 84 bc 3b 3d 04 94 3d 4f 44 25 3c 9f 64 75 bd
       0.00575314 0.07227371 0.010087087 -0.059910413
000140 db 82 e4 3c f2 9e d7 3c 07 04 75 3d a4 df d9 3c
       0.027894428 0.026320908 0.059818294 0.026595898
000150 d8 87 c5 bd a1 c1 b9 3c 29 6b a4 bd e4 4b af 3b
       -0.09645051 0.022675337 -0.08028252 0.005349623
000160 6f 1d 16 bd 10 9e 7d bc e3 89 0b 3d 83 de 2b bc
       -0.036649164 -0.01547958 0.034067046 -0.010490063
000170 bf cc 3d 3d 24 5b b5 bd 5c 4c 74 bd 18 14 8a 3d
       0.04633784 -0.08855274 -0.059643134 0.06742114
000180 49 65 9a bd d9 82 7a 3d fc db 30 bd 37 2c f0 3c
       -0.0753885 0.061159942 -0.043178543 0.029317958
000190 d5 23 09 bd 05 9a b2 bd bc 82 9f 3c 2e 7c 59 bd
       -0.033481438 -0.08720783 0.019471519 -0.053096943
0001a0 ca 67 93 3d 2c d2 e0 3a 96 8b 47 3d 8f 6d 8a bd
       0.071975306 0.001715248 0.048717104 -0.06759178
0001b0 c8 c4 80 3c f7 70 2a bd 9d c7 5f 39 0b fa 3b 3d
       0.015718833 -0.041611638 0.00021341299 0.045892756
0001c0 6a 1b b4 bd ba 2a e3 3c 03 5a 65 ba 4c f1 ed bc
       -0.08794291 0.027730335 -0.00087490695 -0.029045723
0001d0 18 1e 58 3c fe bd a6 bd 73 ea 63 bd 5c 7a 47 bd
       0.013190769 -0.08141707 -0.05564351 -0.048700675
0001e0 03 cb 1f 3d c3 e4 88 3d 2c ca 87 bd 3a c2 8f bd
       0.039011966 0.06684258 -0.06630358 -0.07019468
0001f0 2b de a8 bc d2 9f 04 3d 44 a0 e8 bb 34 f0 34 3d
       -0.02061375 0.03237898 -0.0070991833 0.044174388
000200 34 94 07 bd ee 21 29 3d 6d 48 ad ba 7e b9 a5 bd
       -0.033100322 0.041292123 -0.0013220437 -0.080920205
000210 29 37 d7 39 7b 10 a1 bd 14 ea d2 bc 2e b1 9c bd
       0.00041049093 -0.078644715 -0.025746383 -0.07650982
000220 86 18 71 3c 93 c0 a9 bd ca 5a 9e 3d 59 b3 40 3d
       0.0147153195 -0.08288684 0.077321604 0.04704604
000230 6f 3f 3a 3d 9b c2 2c bd b7 0b a1 bd f1 93 80 bd
       0.04547065 -0.042177778 -0.078635626 -0.062782176
000240 d4 19 63 bd a8 55 b5 3c 23 a4 10 bb e1 79 06 3c
       -0.055444553 0.02213557 -0.002207049 0.008207769
000250 26 6b 59 3c 47 a9 10 3d ed 77 67 3d b0 84 38 3d
       0.013270175 0.035317685 0.056510855 0.045048416
000260 76 a0 61 bd 86 d5 94 3d fc 17 a5 bd 5a 29 55 3d
       -0.055084668 0.07267289 -0.08061215 0.05204139
000270 23 a9 16 3d 27 7e f1 3c 63 bd 63 3c 5b 03 af ba
       0.036782395 0.0294791 0.013900134 -0.001335244
000280 f0 8c 3c 3c 46 d0 ac bd 34 c7 87 bd 3a 73 24 bd
       0.0115082115 -0.084381625 -0.06629792 -0.04014895
000290 0c 3e 7a 3b f4 44 87 3c 2e 3b 8b 3d 4a 8a ae bc
       0.0038183955 0.016512372 0.06798397 -0.021306176
0002a0 21 78 d0 3c 92 5a 8e bc 60 73 4f 3d 38 d9 e2 bd
       0.025447907 -0.017377172 0.05064714 -0.110765874
0002b0 62 aa 44 3d a3 14 97 3d 7b db 84 3c 8b 27 a9 bd
       0.048014052 0.07376983 0.016217938 -0.08259495
0002c0 d2 e4 b4 bc 23 d5 e7 bc bd 82 f6 3c 15 43 9a bd
       -0.022081766 -0.028299874 0.030091638 -0.07532326
0002d0 6d f2 45 3d 00 4a 22 bc 94 9a 6d bd e3 27 41 3d
       0.0483269 -0.009905338 -0.058008745 0.04715718
0002e0 c8 13 5d 3d 28 f3 2e 3c 49 eb 6a bc 0b 45 2b 3d
       0.053973943 0.01067809 -0.014338323 0.04181389
0002f0 ea 92 5b bc b4 10 cc ba 32 cb 32 3d ca 2a d0 bc
       -0.013401726 -0.0015568943 0.043650813 -0.025411028
000300 cf 26 72 bd ae be e2 bb 79 9f 7e bd b9 a2 29 bd
       -0.059119042 -0.0069197034 -0.062163804 -0.04141495
000310 33 1c a2 bd 29 ac 16 bc bc 75 9b bd f6 86 46 3d
       -0.07915535 -0.00919632 -0.075908154 0.048468553
000320 53 ac 7f bd ea 79 5d bd 27 bf 53 3d 98 a0 42 bc
       -0.0624202 -0.054071344 0.05169597 -0.011879109
000330 e0 f9 5f 3d 70 e4 cb bb 7b 81 31 3d a8 37 1b 3d
       0.05468166 -0.0062223 0.043336373 0.037894875
000340 82 dc e8 3b 86 21 7e bd bc d7 69 3b 31 ec 1c bd
       0.0071063647 -0.06204369 0.0035681566 -0.038311187
000350 10 56 ce 3c 5c dc ab 3c ff eb 37 3c cc 98 92 bd
       0.025187522 0.020979099 0.011225699 -0.0715805
000360 a5 7c 80 3d 46 06 e9 bc 2a 12 55 b9 b9 ae 9c bc
       0.06273774 -0.028445374 -0.0002032003 -0.019126283
000370 de 91 37 3d 9c 85 5d bc 8b ea ad bd 1a df 04 3d
       0.044816844 -0.0135206245 -0.08492001 0.03243933
000380 04 1f 87 bd 57 1a 53 3d ab 44 c6 3c ba ef 33 3c
       -0.06597713 0.05153879 0.024202665 0.010982448
000390 7f 61 07 3d 1e 65 50 3d 15 0e a9 bd 58 af f9 bb
       0.033051964 0.050877683 -0.08254639 -0.0076197796
0003a0 b0 bc 8b 3d 12 b1 d9 ba 2a 03 8f 3d f7 b4 58 3d
       0.06823099 -0.0016608557 0.06983025 0.052906957
0003b0 c9 85 10 bd b3 70 15 bd 61 c0 0e 3d 38 13 26 b8
       -0.035283837 -0.03648443 0.034851436 -3.9595383e-05
0003c0 b1 33 24 3d 1a d5 5d bd 19 18 18 bc 5f f0 82 3c
       0.04008836 -0.054158308 -0.009283089 0.015983758
0003d0 0d 00 54 3d 9f b9 13 bd 9e 7d 8f bd fe 00 5a 3d
       0.05175786 -0.036065694 -0.070063815 0.053223602
0003e0 f9 4a 97 bd 68 67 35 3d b4 be b3 bd d5 e4 2f 3d
       -0.07387347 0.04428807 -0.08776608 0.04294284
0003f0 6a 5c 35 3d 76 b9 82 bd 76 7e 91 bb 99 7e 99 bd
       0.044277586 -0.0638303 -0.004440124 -0.0749485

net.2.weight f4 [128, 256]
000000 ca f6 5d bd 73 8a 27 3d 0f a5 8e bc d2 1a 92 bb
       -0.054190435 0.04090352 -0.01741269 -0.0044587636
000010 98 45 ac bc 60 e6 65 3d 17 54 04 3c 98 55 75 bd
       -0.021029279 0.056127906 0.008076689 -0.05989608
000020 52 fa 96 3c 51 be 76 bc 57 fe 25 bd 5f 12 1e bd
       0.018429909 -0.015060023 -0.04052576 -0.03859174
000030 e8 48 a6 3c 1f c9 2c 3c ce 3a c4 bb 54 b4 55 bd
       0.020298436 0.010545998 -0.0059884554 -0.052173927
000040 43 8b c6 bc 33 06 80 bb 18 a4 35 3d e2 d0 52 3d
       -0.024236327 -0.003906989 0.044345945 0.051468737
000050 74 04 b9 3c 1c 4c 40 3d f5 5b db bc 53 db d8 3c
       0.022585131 0.046947584 -0.026777247 0.02647177
000060 7c c2 a4 bc 80 06 32 bb c5 2b 31 bb 93 d3 69 bd
       -0.020112269 -0.0027164519 -0.0027034145 -0.05708654
000070 ea b2 4c bc 31 0b 0a 3d f5 f8 3e 3c 56 42 0c bd
       -0.012493828 0.03370208 0.011656036 -0.03424295
000080 d9 ca f5 3c 92 73 15 3d c4 38 24 3d 7d 58 2c bc
       0.030003952 0.03648717 0.0400932 -0.010519144
000090 82 c5 2b 3c 3a c9 10 3d 28 30 46 3d cc 9c 35 bd
       0.010484101 0.035348155 0.04838577 -0.044338986
0000a0 29 98 61 bc b6 29 b2 3c b0 d2 2f 3d 64 7d 92 bb
       -0.013769188 0.021748405 0.042925537 -0.004470514
0000b0 c9 39 5b 3d 82 9c 6b bd 0d ba 01 3d 44 d0 2c bd
       0.053521905 -0.057522304 0.031671572 -0.042190805
0000c0 52 b3 69 3c af 09 4b 3c 78 bf d8 bc 87 18 fe bc
       0.014263945 0.0123924455 -0.026458487 -0.031017555
0000d0 08 df 2b bd a4 b7 44 3d 4d 8a b7 bc 50 db 22 3d
       -0.041960746 0.048026696 -0.022404814 0.039759934
0000e0 cb 97 83 3d 30 5b 92 3b 54 c2 d0 3b 04 f4 89 bc
       0.064254366 0.004466437 0.006370822 -0.016839989
0000f0 99 11 63 bd e1 9c e2 3c eb 5f 63 3c db aa 97 bd
       -0.055436704 0.027662696 0.013877849 -0.07405635
000100 4a 65 b0 3c fe 16 00 bd b2 6c 4f bb 29 c7 b7 3b
       0.021532673 -0.031271927 -0.003165048 0.0056084585
000110 a0 79 62 3c a0 24 66 bd 01 e3 2f bd 90 c1 2b bc
       0.013822943 -0.056187272 -0.042941097 -0.010483161
000120 31 ab 98 bc 1f 7d ae bc c4 73 07 3d 98 8e 13 bd
       -0.018636318 -0.021299897 0.033069387 -0.03602466
000130 a7 49 59 3c 1c ac 1a 3d c5 88 02 3d 73 cc 9c bc
       0.013262189 0.037761793 0.031868715 -0.019140458
000140 c4 2e 70 bd 9a 4c 29 3d 42 03 2c 3d 47 b6 5d bd
       -0.05863835 0.04133282 0.041995294 -0.05412891
000150 4e 92 1d 3d c6 44 12 bd 2c 4f a6 bc e8 a7 51 3d
       0.038469605 -0.03571012 -0.020301424 0.05118552
000160 f5 46 1d 3d 8a 33 78 bb 67 d7 11 bd 52 00 91 bb
       0.038397748 -0.0037872517 -0.035605814 -0.004425087
000170 b2 7f 74 3c 5e ba 65 3d 1b 44 27 3d e0 19 35 3d
       0.014923023 0.056085937 0.040836435 0.04421413
000180 f2 36 e8 bc e8 28 39 3d 3e 01 56 bd b0 0b 85 3c
       -0.028346512 0.045205027 -0.05224728 0.016240925
000190 fe 69 bb bc 64 cb 85 bd a4 44 1a 3d b8 7c 59 bd
       -0.02287769 -0.06532934 0.037663117 -0.053097457
0001a0 eb a5 8b 3c 57 1f 8f bd 00 1a 49 bc bd 0c 38 bd
       0.01704689 -0.069883995 -0.012274265 -0.044934023
0001b0 90 9c 1d bd 80 63 94 bc 8b 7d 10 3d 3c 73 86 bc
       -0.038479388 -0.018113852 0.035275977 -0.01641237
0001c0 a2 98 9a 3c 28 3d be bd ea 1f 83 3d 58 b8 43 bd
       0.01887161 -0.092890084 0.064025715 -0.047783226
0001d0 64 74 af 3c 52 06 59 bd f0 a1 32 bd a7 75 ad bc
       0.021417804 -0.052984543 -0.043611467 -0.021174265
0001e0 33 e6 3c bd ec 70 8d 3c bb 44 1e 3c 5a e6 5c bc
       -0.046117973 0.01726576 0.009659941 -0.0134826545
0001f0 ce ad 6c bc 05 2e cd 3b 16 06 a5 3a b0 53 45 bd
       -0.014445735 0.0062615895 0.0012590315 -0.048175514
000200 50 d6 2f bd 36 e7 6e bd 84 0b ed bc 80 59 44 ba
       -0.042928994 -0.05832597 -0.028936155 -0.0007490143
000210 66 11 89 3c 51 10 47 bd 2d 7e fd bb 44 80 47 bd
       0.016731929 -0.048599545 -0.0077359886 -0.048706308
000220 85 76 7d 3a 18 71 ee bc 6d ce 69 bd 7e 6c 12 3c
       0.0009668845 -0.029106662 -0.05708163 0.008936999
000230 88 96 06 bd c4 70 af 3c 90 84 27 3c e1 06 2e 3d
       -0.0328584 0.021416076 0.010224476 0.04248703
000240 eb e9 f3 bc 68 11 43 3c a8 a8 3f bc 11 16 f9 3b
       -0.029774627 0.011906005 -0.011697926 0.0076015075
000250 f6 dc 51 bb 60 db 06 bc 7e 61 6b 3d 93 50 33 bc
       -0.0032022572 -0.008231014 0.057466023 -0.010944503
000260 78 76 99 3c fe 54 56 3d 17 df 64 3d 03 ba a0 3a
       0.018733248 0.05232715 0.055876818 0.0012262467
000270 23 32 a6 3b a2 6f 12 3d 01 fd 14 bd 82 30 84 3d
       0.0050718947 0.035750993 -0.036374096 0.06454565
000280 c7 68 fa bb 59 95 2a bc 5a 8b ce 3c 25 f8 58 3d
       -0.007641885 -0.010411584 0.025212932 0.052971024
000290 b9 d8 80 3d 9d 0a 4e 3d ac e0 4b bc bf 4f 02 bd
       0.062913366 0.05030309 -0.012443703 -0.031814333
0002a0 8c dd d9 bc 30 72 69 bc f8 bd af 3c fa ff 30 3c
       -0.0265949 -0.014248416 0.021452889 0.010803217
0002b0 63 4e 1a bd 37 59 4d bd ac 27 26 bd ba 38 6e bd
       -0.03767241 -0.05013391 -0.040565178 -0.058159567
0002c0 25 59 16 3d 85 dd 07 3d f1 d5 a2 3b 12 26 ea ba
       0.03670611 0.03317024 0.0049693515 -0.0017864129
0002d0 17 cc 33 bd 32 34 1f 3d 15 af d3 3c e0 09 32 bd
       -0.043895807 0.038868137 0.025840322 -0.04346645
0002e0 60 1e 22 bd 2b 19 91 3c 8e dc 20 bc 55 ca 03 3c
       -0.03957975 0.017712196 -0.009818209 0.008043845
0002f0 d6 72 b4 3c 5e 9d ef 3a 3e 9a 52 bd 05 73 0f 3c
       0.022027414 0.0018281152 -0.051416628 0.00875545
000300 b2 ae 93 3c f8 71 99 bc 49 41 d7 3c f2 33 f1 bb
       0.018027637 -0.018731102 0.026276248 -0.0073609287
000310 d4 06 21 3d 72 07 0d bd 00 94 22 ba 95 09 30 bc
       0.039313152 -0.03443093 -0.0006201863 -0.010744472
000320 5b 98 4f bc ae db 75 3a 58 55 48 bd d5 33 77 bc
       -0.012670602 0.0009378743 -0.048909515 -0.015088041
000330 9b 2f 89 bc 98 60 aa bc 1e 97 2d bd 22 46 18 3d
       -0.016746333 -0.020798013 -0.042380445 0.03717626
000340 43 5b 6b bd c1 98 e0 3c c8 bd 3e 3c ad 3e 6d 3c
       -0.05746008 0.027416589 0.011641927 0.014480275
000350 e3 06 fa bc b8 7f 09 3d 53 7f 06 3d 14 a0 64 3d
       -0.030520862 0.033569068 0.03283627 0.055816725
000360 4a df 5c bd 95 57 a7 bd 5e 23 f1 3c 0a b1 4a 3d
       -0.053923883 -0.08171002 0.02943581 0.049485244
000370 83 4c 7b bd 9a db 45 3d 06 ed e7 3c 21 55 73 3d
       -0.061352264 0.04830513 0.028311264 0.059407357
000380 94 67 21 3d a9 82 54 3c 14 a3 02 bd ba a2 08 3d
       0.03940542 0.012970605 -0.031893805 0.033358313
000390 24 20 44 bd 2b 3e 4c bd 0f 19 b9 bc 9c ec 1b bd
       -0.047882214 -0.049863975 -0.022594957 -0.038067445
0003a0 43 70 6a 3d 8e c3 01 3d 10 b9 df 3c 4b a6 11 bd
       0.057235967 0.031680636 0.027309924 -0.03555898
0003b0 ae 07 ac 3c 5c 90 0d 3d 3e 1c 6e bd c2 18 b3 3c
       0.020999756 0.0345615 -0.058132403 0.021862391
0003c0 08 48 a1 bc 62 90 e3 3b bc f1 d7 3c 64 ed 58 3d
       -0.019687667 0.006944702 0.026360385 0.05296077
0003d0 93 0b 0c bd d4 cf 90 bd 44 dd a0 3c 34 f5 a6 bc
       -0.034190726 -0.0707089 0.019636758 -0.020380594
0003e0 2e 78 97 3a 0a 40 a4 3d 66 92 7b bc 0a 9c a2 3b
       0.0011556202 0.08020027 -0.015354728 0.004962449
0003f0 a3 4f a9 ba 0f 1b fc bc fc e4 a6 bc f8 6f d4 3c
       -0.001291741 -0.030774621 -0.02037286 0.025932297

net.2.bias f4 [128]
000000 cc 04 27 bd ec 7d 36 bd 7b d7 71 bd 28 2e 34 be
       -0.04077606 -0.044553682 -0.05904339 -0.17595732
000010 a6 84 ed bb c2 e2 b8 bd 68 02 7e bc 38 ae 2a bd
       -0.007248479 -0.090276256 -0.015503503 -0.041670054
000020 d6 8d 80 bd eb cb 9a bd 16 1c 3a bd f1 a7 6e be
       -0.06277053 -0.075584255 -0.04543694 -0.23306252
000030 ee a2 f8 bd 1c a0 93 bd f9 80 8b c0 9c dc 06 be
       -0.12140451 -0.07208273 -4.3594937 -0.13170093
000040 d6 13 c6 bc e7 f7 a4 bd 76 56 e8 bd 2b c9 db bd
       -0.02417938 -0.08055096 -0.11344616 -0.10731729
000050 89 37 8e bd 55 c7 08 be 56 37 8f bd af 37 b2 bc
       -0.06944186 -0.13357289 -0.06992976 -0.021755068
000060 2c 31 b0 bd fc 70 84 bd 43 56 af bb 44 90 4e be
       -0.08603129 -0.064668626 -0.0053508594 -0.2017222
000070 40 2d bc bd ad dd 63 bd c2 9e 32 bd 2f 3a e7 bd
       -0.09188318 -0.05563133 -0.043608434 -0.112903945
000080 30 f5 fa bc f4 ea ac bc 51 1c dd bd b5 6a f1 bd
       -0.030634493 -0.021108128 -0.107964166 -0.11787931
000090 2e 7e 8a bd 55 7a 9c ba 00 33 ff bd b9 61 8a bd
       -0.06762348 -0.0011938313 -0.12460899 -0.0675692
0000a0 e3 6d 50 bd 3b 48 71 bd e3 51 08 bc 95 ff 08 be
       -0.050886046 -0.058906775 -0.008320305 -0.13378747
0000b0 00 fb 98 bd d0 96 07 bd 58 f1 4e bf 05 33 9f bd
       -0.074697495 -0.03310281 -0.8083701 -0.07773403
0000c0 3b 24 16 bd 89 80 8a bd 4f f7 b6 bc 94 cb 65 bd
       -0.036655646 -0.067627974 -0.022334723 -0.05610235
0000d0 c0 fc 19 bf 35 99 e5 bd ea 9a 89 b7 48 38 b3 3f
       -0.6015129 -0.112108625 -1.640381e-05 1.4001551
0000e0 f8 b9 e1 bd d7 e5 63 ba 28 2a a2 bd 70 df db bd
       -0.11021799 -0.00086936116 -0.07918197 -0.10735977
0000f0 22 fe 69 bd 5a 2a 8a bc e0 bb bf bd 92 7b b6 bd
       -0.057127126 -0.016865898 -0.09362006 -0.08910288
000100 07 11 3b bd d4 29 34 bd e5 dc 0a bd 04 8d 84 bd
       -0.045670535 -0.043985203 -0.033902068 -0.06472209
000110 bc f9 17 be 0a 41 e5 bc ce cc ef bd c6 86 70 bd
       -0.1484136 -0.027985115 -0.11708985 -0.05872228
000120 1d cf 3a bf e8 4c b3 bc 5e 45 2f bd a4 0f 05 be
       -0.7297228 -0.021887258 -0.042790763 -0.12994248
000130 fb cf 3f bd 1e 3c f9 bc 43 4e 88 bd 7a 56 85 bb
       -0.046829205 -0.030424174 -0.06655552 -0.0040691467
000140 a5 6f ac bd 71 81 c0 bd 04 2d 8f bd 9a 21 a7 bd
       -0.08419732 -0.09399689 -0.06991008 -0.08160706
000150 e7 7b e4 bc 4a 99 de bd fa 7c 42 bd 6f 40 f7 be
       -0.027891112 -0.10869081 -0.04748247 -0.48291346
000160 d3 c8 49 bc 5b 9c 8f bd e6 8f 9c bd 67 c3 6b ba
       -0.012315947 -0.07012244 -0.07644634 -0.0008993656
000170 5c 84 c4 bd fb 9e 17 bd 7a 42 fc bf 35 d7 79 bd
       -0.09595558 -0.03701685 -1.9707787 -0.060996253
000180 03 af 98 bd 34 b9 d6 bc 48 15 e8 bd 31 1f 68 bd
       -0.07455256 -0.026211359 -0.11332184 -0.05667037
000190 ad ca f1 bb a6 10 08 be e6 00 11 be 77 b2 7a bd
       -0.007378897 -0.13287601 -0.14160499 -0.061205354
0001a0 ce 2e 48 bd 69 47 36 be 29 d9 85 bd c5 a1 71 bd
       -0.04887276 -0.17800678 -0.06535561 -0.058992166
0001b0 07 ff 90 3e e4 03 f8 bc fd 40 83 bd 44 95 2e bd
       0.2831957 -0.030275293 -0.0640888 -0.04262282
0001c0 90 9d 39 bd 9a 66 cc bd 73 10 e2 bd d6 cc 6f bd
       -0.04531628 -0.09980507 -0.11038294 -0.058544956
0001d0 fa 19 67 bc 0b dc be bd a8 cc b9 bd 75 67 4b ba
       -0.014105314 -0.093193136 -0.09072238 -0.0007759252
0001e0 c0 43 a9 bd 28 80 2f be db 97 4e bd de 08 3d bd
       -0.082648754 -0.17138731 -0.05043779 -0.046151035
0001f0 aa 5f d0 bd a4 5b fd bd 53 9c 16 bd 0a 4f 8a bd
       -0.101744965 -0.12370995 -0.036770176 -0.06753357

net.4.weight f4 [64, 128]
000000 9b 02 a1 3d db 61 a4 bc 85 7b 32 bd 86 c7 57 bd
       0.07861825 -0.020066192 -0.04357483 -0.052680515
000010 bb ab b5 3b 0d 22 9a 3c 32 d5 2e 3d 3b d4 69 3d
       0.0055441535 0.018815065 0.042683788 0.057087164
000020 55 a3 a6 bc 39 f9 22 3a 3e 46 e4 3c 04 63 09 bd
       -0.020341555 0.00062169466 0.027865525 -0.033541694
000030 21 ff 19 3d 86 8d 05 bd 1f 5c ad be 2a c5 5c bd
       0.037596826 -0.03260567 -0.33859345 -0.053898968
000040 46 74 40 3d 3a 95 21 3d 57 1d 28 bd b2 61 a7 bd
       0.046985887 0.039448954 -0.041043606 -0.08172931
000050 b8 2c b0 3d 5b 73 cd bd 48 de 97 3c 8c 55 cd bc
       0.086022794 -0.10031768 0.01853861 -0.025065206
000060 57 ba 25 3c e1 a4 4c bd 09 46 df 3b 8a a0 87 3d
       0.010115228 -0.04996193 0.0068137688 0.06622417
000070 45 ad 1a bd 4a 9a db bd ba db d9 bd f8 cb be bb
       -0.0377629 -0.10722788 -0.10637613 -0.005822655
000080 c8 7f 39 bd bc b0 13 3e 34 cd 8d 3d 82 2b 82 bc
       -0.045287877 0.14422888 0.06923905 -0.015889887
000090 1f 6d f6 bb 25 9d f0 bd f2 25 fd bc 82 92 cd 3d
       -0.0075203325 -0.11748723 -0.030901883 0.1003771
0000a0 06 62 91 bd 53 c7 c5 bb 10 07 a7 bd 9b c3 07 bd
       -0.070987746 -0.006035724 -0.08155644 -0.03314553
0000b0 08 92 54 3d a1 f2 0d 3e 93 d0 60 be 69 ed bf 3b
       0.05189708 0.13862087 -0.21954565 0.005857159
0000c0 84 b2 af 3c 65 6c ae bd 73 46 78 3d 60 cf ba bc
       0.021447428 -0.08516768 0.06061406 -0.022803962
0000d0 dd 83 4a be cd 0a 8b 3c b1 4b ae 3c f0 5a 61 bd
       -0.19776864 0.016972924 0.021276327 -0.055018365
0000e0 ac 6d 6f 3d ea e3 bb 3d a8 9c a0 3c da 3f 84 bd
       0.0584542 0.091743305 0.01960595 -0.06457491
0000f0 94 66 aa bd 6a fc 0d 3d 7c 7d fe 3d 49 1f 4e 3b
       -0.083203465 0.03466455 0.12426278 0.0031451753
000100 e9 1c 41 bd 43 e1 90 39 07 0a a5 3d 23 a7 92 bd
       -0.04714671 0.00027633653 0.08058553 -0.07160785
000110 89 89 52 3d 64 5f 9c bd bf 61 9a 3d 34 df 40 bc
       0.051400695 -0.07635382 0.07538175 -0.011771966
000120 79 20 af be c7 ee d3 3d 4b 8e 9c 3d 4e 28 c0 bd
       -0.34204462 0.103482775 0.07644328 -0.093826875
000130 10 bc 84 3d 70 45 ac 3d 3a 83 d4 3c ea a5 af 3d
       0.064811826 0.08411682 0.02594148 0.085765675
000140 42 dd ca 3d ef e3 e0 bc 6e af 43 3d 4e ca a5 3c
       0.09905483 -0.027452437 0.047774725 0.020238068
000150 f7 e0 5d 3d af 77 a3 3d 70 a6 6c 3c ed 27 8a bd
       0.05416962 0.07981812 0.014443979 -0.067458965
000160 07 4a 02 bd 25 b5 22 3c a6 48 45 bd e4 a9 06 bd
       -0.03180888 0.0099308835 -0.048164986 -0.032876864
000170 ae d6 75 bd 89 e5 e5 bd 06 ee 88 be c8 10 71 3d
       -0.060019188 -0.11225421 -0.26744097 0.058853894
000180 52 ca 5a 3d da 3e 8b bc 90 7d c5 bc eb 9f 14 3d
       0.053415604 -0.016997743 -0.024107724 0.036285322
000190 01 c3 89 3c 74 8c 09 3b ff a2 66 bc 82 b0 ad 3d
       0.016816618 0.0020988258 -0.014076947 0.08480932
0001a0 5b 84 ac bc 2e a8 4c bd 7d ac 2b 3d 74 3f 85 bc
       -0.021059206 -0.049965076 0.041912545 -0.016265608
0001b0 b3 fd 5d be 04 5c 18 3b f5 ba 04 bd e5 31 19 bc
       -0.2167881 0.0023248205 -0.03240486 -0.009350275
0001c0 6b 52 0a 3d 16 c3 8b bd a0 9d 40 3a 97 0f 67 3d
       0.033770006 -0.06824319 0.00073477067 0.056411352
0001d0 5a 96 f8 3c 24 1a 73 bd 71 ba 55 3c a2 33 bf 3d
       0.03034513 -0.0593511 0.013044939 0.0933602
0001e0 5b ff d0 bd 42 86 fd bc ee 1f b0 bd ee 02 33 bd
       -0.10204955 -0.030947808 -0.0859984 -0.043703966
0001f0 00 da 17 bc 71 0e b2 bd de 5f e5 bc d4 b7 df 3d
       -0.009268284 -0.08694161 -0.027999815 0.10923734
000200 07 1f 30 3d 63 01 3a bd 1b b0 2a 3c 6a 2e 8e bd
       0.04299834 -0.04541148 0.010417963 -0.069424465
000210 bf 2f b3 bd d9 42 a2 bd 6c fc c9 3b 2d ea 91 3d
       -0.08749341 -0.079229064 0.0061641242 0.071247436
000220 66 af bb 3c 62 f4 8f bd 9e c3 aa bd 3c cd cf bc
       0.022910785 -0.07029034 -0.08338092 -0.025366418
000230 cb da b3 3d 42 c3 3a 3d 8a 34 10 bd 5f 6f 06 bd
       0.08781966 0.04559637 -0.035206355 -0.032821056
000240 7c cc b3 bd 62 01 a2 3c 56 29 b2 3d b2 ae 4b bd
       -0.08779237 0.01977605 0.086992905 -0.04972715
000250 c3 2e 21 bd d9 ea 4c bd ee 3e 7d bd a1 04 5b bd
       -0.039351236 -0.050028656 -0.061827593 -0.05347121
000260 37 0c a1 bb c7 ef aa 3d c4 69 2b 3c ba a8 41 bd
       -0.004914786 0.08346515 0.010462228 -0.04728005
000270 07 f7 a1 bd c4 a6 6c bd 10 6e b1 3b 50 04 80 bd
       -0.07908445 -0.057776228 0.005414732 -0.062508225
000280 97 65 37 bc 04 00 b1 3d cf 12 af 3d 0e 89 9e bd
       -0.0111936545 0.08642581 0.08548509 -0.07740985
000290 2a 48 4d 3d ec 78 8f bd ed 17 a2 bd 29 b9 89 bd
       0.05011765 -0.07005486 -0.0791472 -0.067247696
0002a0 16 57 9a bd ce 7d 0a 3b 1f 3b ee bc c4 53 23 3d
       -0.075361416 0.0021132114 -0.029080926 0.039874807
0002b0 ff 74 0a bd 93 32 f5 3a 31 05 7f bd bf 9f 4d bd
       -0.033802982 0.0018707089 -0.06226081 -0.050201174
0002c0 00 1b 51 3d c5 ce 8e 3c aa ec b1 bd bb 37 a4 3d
       0.05105114 0.01743258 -0.08687718 0.08018442
0002d0 50 cc 13 3c 4e 21 b1 bd 70 4a bf 3c 5f 0e 92 bd
       0.00902088 -0.086489305 0.023350924 -0.07131647
0002e0 27 ac 8f 3d 64 d3 b1 bd 6b ae 5e 3b 0e e1 21 3d
       0.07015257 -0.08682898 0.0033978473 0.03952127
0002f0 6d 76 05 bd a8 63 8e 3d 13 68 84 bd 95 a6 21 3c
       -0.032583643 0.06952602 -0.06465163 0.009866376
000300 be 13 9d bd b0 9a 2f bd 6e 5a 9e 3a 90 bb aa bd
       -0.07669781 -0.04287213 0.0012081394 -0.08336556
000310 e1 21 49 bd 67 c0 1b bd c3 05 75 bd 37 ca 73 bc
       -0.049104575 -0.038025286 -0.059819948 -0.014879755
000320 c4 f3 08 be 41 59 84 3d 14 f3 4e 3d aa c1 4d bc
       -0.13374239 0.06462336 0.050524786 -0.01255838
000330 2a 31 b0 bd 3c 7d 4c bc 14 9c 3c bd c8 d4 48 3d
       -0.08603127 -0.01248103 -0.046047285 0.04903105
000340 de 5d 83 bc 4f fc 56 bd f8 24 8b bd 06 b5 8e ba
       -0.01603597 -0.052486714 -0.067941606 -0.001088769
000350 cf 12 38 bd 5b eb 3b bd bf 95 88 bc 4f fe ae bd
       -0.044939812 -0.04587875 -0.016672967 -0.08544599
000360 ba 12 57 3d 54 3b be bc d6 f9 55 3c 3e 90 85 bd
       0.052508093 -0.02322165 0.013060054 -0.06521653
000370 79 2b 85 bb 0c 3c 09 3d b7 3f a2 bb 20 56 24 3d
       -0.0040640202 0.03350453 -0.004951443 0.040121198
000380 11 dc 7e bd 36 42 a5 3d 72 e6 a5 bc 1b fb a7 3d
       -0.06222159 0.08069269 -0.020251486 0.082021914
000390 81 cb fa 3c 5a 96 af bd 7c 77 30 bd f0 17 de bc
       0.030614616 -0.08573599 -0.0430827 -0.027111024
0003a0 05 bf 3b bd bf 37 9e bd b1 2c 3b bd 4d 38 29 3d
       -0.045836467 -0.077254765 -0.045696918 0.04131346
0003b0 eb dd 2d bd 84 02 d7 3c f8 b4 b3 bd 28 03 87 3d
       -0.042447966 0.026246317 -0.087747514 0.06592399
0003c0 14 93 87 3c 1e 2f 16 bd 80 9a 09 bd 2e e3 9c 3c
       0.016549625 -0.03666603 -0.03359461 0.019151296
0003d0 97 4c 83 bd 86 cf 37 bc 08 99 86 3d 88 13 66 bd
       -0.06411093 -0.011218911 0.06572157 -0.05617097
0003e0 3a cf a7 bd dc 75 af bd 3d fd cd bc 49 07 ad bd
       -0.08193822 -0.08567402 -0.025145167 -0.08448655
0003f0 fd b1 29 3b e6 7d b4 bd b5 4c 94 3d 8a 51 93 bc
       0.0025893443 -0.08813076 0.07241193 -0.017983217

net.4.bias f4 [64]
000000 e1 73 fb bc ab 66 f2 bd 61 ae ad 3e dc 00 f0 bd
       -0.030694904 -0.118359886 0.33922103 -0.11718914
000010 85 a6 eb bd aa a8 03 bd 84 28 ad bd c4 ec d5 bd
       -0.115063705 -0.032143272 -0.08454993 -0.1044555
000020 c9 55 36 be b6 e3 9c bd 75 28 bf bd 8d 60 8d bd
       -0.17806162 -0.0766062 -0.093338884 -0.06903181
000030 86 07 59 be 57 3d 87 bd 96 b0 a9 b9 ee 02 f5 bd
       -0.21194276 -0.066034965 -0.0003236576 -0.119634494
000040 02 e5 88 be 57 86 b5 bd b2 fd 08 bd 4f 7d c3 bd
       -0.2673722 -0.08863514 -0.033445068 -0.09545385
000050 a1 b7 94 bd 34 12 bb bc e0 ea 00 be d9 c8 1d bd
       -0.07261587 -0.022835828 -0.12589598 -0.03852162
000060 27 b4 b1 bd 42 66 d9 bd b1 6a 12 be 88 a9 0f bd
       -0.086769395 -0.10615207 -0.14298512 -0.035073787
000070 5d 9e 31 ba 39 e2 9f bd bc a7 ba bd d4 0f e5 bd
       -0.0006775612 -0.078068204 -0.09114024 -0.111846596
000080 e5 45 f1 bd 35 07 dc bd a3 43 16 be 79 13 96 bd
       -0.117809094 -0.10743562 -0.14674239 -0.07327933
000090 12 24 ba bd a2 a2 3d bd 0e 83 89 bd a9 c6 3e bd
       -0.09088911 -0.046297677 -0.0671445 -0.046576176
0000a0 d1 b5 95 bd 82 6f cb bd db f8 10 be f7 ef 15 3f
       -0.07310069 -0.09933378 -0.14157431 0.5856928
0000b0 61 16 07 be 24 00 d5 bd c2 db f9 bd ba c8 da bd
       -0.1319213 -0.104004174 -0.122001186 -0.10682817
0000c0 a7 ba 1c be 95 57 86 bd 82 68 2b bd db f7 fe bd
       -0.15305577 -0.06559674 -0.041847713 -0.124496184
0000d0 5f 88 d7 bd 1b 15 a0 bd db 92 42 bd 37 37 1d bf
       -0.105240576 -0.078165255 -0.047503334 -0.61412376
0000e0 bc e8 1d be ff d6 b4 bd 87 0a 51 bd bd 13 94 bd
       -0.15420812 -0.0883007 -0.05103543 -0.07230327
0000f0 ae 1d d4 bd a4 d1 9c bd a7 24 3f be c5 1d 8b bd
       -0.103572235 -0.07657173 -0.18666326 -0.067927875

net.6.weight f4 [1, 64]
000000 ae 89 27 3c 2a b0 15 3d 92 ac 81 bd ac 16 04 3d
       0.0102256965 0.036544956 -0.06331743 0.032248184
000010 4b 6b 59 bc 93 1d a3 bc 27 51 03 3d 39 78 08 bc
       -0.01327021 -0.019911563 0.032059815 -0.008329445
000020 a2 0d 9c bc d0 fe ed 3c d8 75 98 3c c2 35 61 3c
       -0.01904947 0.029052168 0.01861088 0.013745727
000030 5e 2c d5 bc 9e 34 6f bc 46 4e f9 3a 0f 0e ad 3c
       -0.026022132 -0.014599947 0.001902052 0.021124868
000040 76 2a 80 bb 59 37 43 bc 46 28 d1 3d 01 96 bf bb
       -0.0039113117 -0.011915051 0.1021276 -0.0058467393
000050 e1 bb a2 bd f9 de 32 3b df 21 4d bc cc a1 5d bc
       -0.07945991 0.0027293547 -0.0125202825 -0.013527345
000060 e6 bc 04 3d ee 4f bf bc e2 b6 e3 3c fa 73 9d 3b
       0.03240671 -0.023353543 0.027797166 0.0048050852
000070 99 ba dc 3c c1 31 4f bd 3e c0 1a bb e5 14 7e 3c
       0.026944445 -0.05058456 -0.002361312 0.015507911
000080 82 ee ee bb b8 b4 e3 3b a4 30 20 3d ed fb 3a bd
       -0.007291616 0.0069490336 0.039108887 -0.04565041
000090 d1 14 5b 3c ea 6e 9a bc 40 19 1e bc 4d 17 a0 3b
       0.013371662 -0.018851716 -0.009649575 0.00488559
0000a0 2e 19 50 39 fb 91 9c ba aa f6 a0 bb c5 58 49 be
       0.00019845806 -0.0011945361 -0.004912217 -0.19662769
0000b0 8d 08 4c 3c 7e 84 98 bc c9 de ae bc fb f3 18 bd
       0.012453211 -0.018617865 -0.021346467 -0.037342053
0000c0 01 c4 38 bc c0 dc 5c bc f6 04 ec 3d b6 5d 71 bd
       -0.0112772 -0.013480365 0.11524384 -0.05892726
0000d0 48 2a 0b bd 57 b3 96 3a 24 93 0b bd 2c 92 35 3e
       -0.03397587 0.0011497539 -0.03407587 0.17731541
0000e0 08 25 97 3c 6c 32 83 3c 43 56 ca 3a fa b9 b8 3c
       0.018450275 0.016015254 0.0015437085 0.022549618
0000f0 b9 d6 ce 3c a7 d2 e7 3b d0 84 9a bc 90 cc 1b 3c
       0.025248872 0.0070746723 -0.018862158 0.009509221
