src/sliding_tiles/7x7_custom.pth (torch, 321828 bytes, 7 tensors)

net.0.weight f4 [256, 149]
000000 8a 90 88 bd df c6 87 bd fe 86 ca bd 7f 6a 92 bd
       -0.06668194 -0.066297285 -0.09889029 -0.07149219
000010 96 a6 60 bd 90 f7 b0 bc 02 08 5b bd d4 5f 82 bc
       -0.05484637 -0.021602422 -0.053474434 -0.015914835
000020 35 8f a3 bd 43 1f 37 3d 9f 15 3b 3d 74 17 75 3d
       -0.07986299 0.044707548 0.045674916 0.05983682
000030 a2 fb 96 3c f4 08 5d 3d 2b 25 82 bd 63 50 5c 3d
       0.018430535 0.053963616 -0.063547455 0.0537876
000040 fb f4 97 bd 39 e5 16 3d 10 01 7a bd e3 ec 31 3c
       -0.07419773 0.036839698 -0.06103617 0.010859701
000050 e3 b8 95 bb 78 74 c8 bc e1 7e b4 3b df 53 13 3d
       -0.0045691594 -0.0244696 0.005508289 0.035968658
000060 e3 56 0d 3d 78 b1 e4 bb 78 ef 37 3d 78 f1 8f 3c
       0.03450669 -0.0069791637 0.04490611 0.017571196
000070 f3 3e 66 bd 7c c1 63 bc 9c 5f 16 3c 28 f7 43 3d
       -0.056212377 -0.013901111 0.0091780685 0.04784313
000080 f9 ee 09 3c b1 76 f4 3b 4d 40 eb bc b0 6d 29 bc
       0.008418792 0.007460438 -0.028717184 -0.010341093
000090 a8 e1 2d 3d ba 59 8b bd 4b ce 32 3d 2e de c3 bd
       0.04245153 -0.06804223 0.043653768 -0.09563862
0000a0 6b 74 9b 3d 4b bb 4c bd ab 44 08 3d 5c 29 21 3d
       0.07590564 -0.049983304 0.033268612 0.039346084
0000b0 10 dd 9f bd 29 7a 5e 3d 10 de e4 3c 6b 39 82 bd
       -0.07805836 0.05431572 0.027937919 -0.06358608
0000c0 6e fc e1 3a ce 5d 32 3d 78 77 d8 3b 79 80 ed bc
       0.0017241368 0.04354649 0.0066060387 -0.028991925
0000d0 94 1e 46 bd 69 f1 7f bd 6b 03 8b 3d af 92 cc 39
       -0.048369005 -0.062486086 0.06787761 0.000390192
0000e0 74 e5 31 bc 5b 92 5f 3c 40 2e 7b bc ff 4d 88 bd
       -0.010857929 0.013645734 -0.015330851 -0.066555016
0000f0 c4 ef 05 3d 25 16 d9 3c f9 57 9e bd 9e 06 8a 3b
       0.03269936 0.026499817 -0.07731623 0.0042122146
000100 34 30 4b 3d 79 39 90 3d 9f fc 0d bc 8a fd 1e 3c
       0.049606517 0.07042212 -0.008666187 0.009704003
000110 90 c1 68 3d 1d 57 9c 3c 1a 31 7d 3c e1 93 ef bc
       0.05682522 0.019084508 0.015453601 -0.029245319
000120 f6 b4 9f bd 48 53 5d 3c d4 16 07 3d 50 7b 97 bd
       -0.077981874 0.013508625 0.032980755 -0.07396567
000130 1f f5 af bd 4c 2e 22 3d d2 67 38 bd 2f 73 1a 3d
       -0.08591675 0.039594933 -0.045020886 0.037707504
000140 5d 2c f0 bc 36 83 11 3d 7d c4 94 3d 81 22 87 3d
       -0.029318029 0.035525523 0.0726404 0.06598378
000150 31 c9 98 bd 1d a0 16 3d d6 a3 8a bc e8 87 8f bc
       -0.07460249 0.03677379 -0.016923826 -0.01752086
000160 78 d4 42 bd ca b0 88 3d 87 32 b1 bd de 41 5d bb
       -0.047565907 0.06674345 -0.086522155 -0.0033761184
000170 c2 6d be 3b fd 39 17 bd 8a 24 8b 3c 02 5d 64 bd
       0.005811424 -0.036920536 0.016985197 -0.05575276
000180 9e 94 b3 bd 9a 42 ee bc 9c 8a 1c 3d 7b 17 07 bd
       -0.08768581 -0.029084492 0.038218126 -0.032981377
000190 f2 dd f7 39 3d 13 5a bd 1e fc 1c 3d ec ff b8 bd
       0.00047276873 -0.053241003 0.038326375 -0.09033188
0001a0 ad f3 f5 3c 6d 0e 2b bd 0c ea fc 3c bb 83 b4 bd
       0.03002342 -0.041761804 0.030873321 -0.08814188
0001b0 6b c6 33 3d 72 2a 21 bd 80 2e 0c bd 33 3f 9c bd
       0.043890398 -0.03934712 -0.034224033 -0.07629242
0001c0 91 52 14 3c 77 ce aa bd e5 14 f0 3c 16 c3 95 bd
       0.0090528885 -0.08340161 0.029306838 -0.073126
0001d0 d7 0b b6 3c b9 c1 97 bd f3 17 40 bd 86 79 04 bd
       0.022222443 -0.074099965 -0.04689784 -0.032342456
0001e0 80 df 01 bd cd d3 78 bd c2 c5 40 3d 5f d0 82 3d
       -0.031707287 -0.060748864 0.047063597 0.063874
0001f0 5f c3 4f bd 18 23 d6 3b f4 24 9d b9 c7 4e 35 bd
       -0.05072343 0.006534945 -0.00029972906 -0.04426458
000200 a8 f5 7b 3c 24 a2 8d bc 01 f5 13 3d ca c3 27 3d
       0.015378393 -0.017289229 0.036122326 0.040958203
000210 33 6a ce ba 1c 11 31 bc 65 0b 80 bd 5f 8b 4e 3d
       -0.0015748203 -0.010807302 -0.06252173 0.050425883
000220 17 71 51 3d f1 d7 9c 3d 60 66 14 bc ce 0c 49 bc
       0.05113324 0.07658375 -0.009057611 -0.012271119
000230 f8 76 25 bd 4f 1f 73 3d bc ef a7 bd 95 fa 32 bd
       -0.04039666 0.05935603 -0.082000226 -0.043696005
000240 fc 56 92 3d ab 02 55 bd 1c 38 00 bd 50 ab 93 bf
       0.07145497 -0.052004497 -0.03130351 -1.1536655
000250 8d 72 94 bf 2c 75 73 3c b2 b2 35 bd 79 ae 7d bd
       -1.1597458 0.014859479 -0.04435987 -0.06193397
000260 fd 51 1e 3a 33 47 a6 bd ea 9c 8b 3b f2 30 79 3d
       0.0006039439 -0.08119049 0.004260649 0.060837694
000270 bf 9f 86 bc cb be 47 3d b4 b7 1a 3d dd e3 8d bd
       -0.016433595 0.04876594 0.03777285 -0.06928227
000280 a3 b5 2b 3c 1f 44 8c bd bb f9 02 bd 46 c4 81 3c
       0.010480317 -0.068489306 -0.031976443 0.01584066
000290 84 c0 6b 3d 9e 72 76 b9 ed d0 26 3d fc 4a 3b bd
       0.057556644 -0.00023503086 0.04072659 -0.045725808
0002a0 8e e4 2a bc b3 0c 13 3c 91 c7 87 3d 00 b6 33 bb
       -0.010430468 0.008975196 0.06629861 -0.0027421713
0002b0 33 1c e4 3b 69 bd 06 bd a2 d7 bc bd 30 dd 35 3c
       0.0069613694 -0.03289548 -0.09220816 0.0111000985
0002c0 1c aa a4 bd ac 73 92 bd 50 20 62 bd f3 75 08 3b
       -0.08040258 -0.07150969 -0.055206597 0.0020822256
0002d0 48 fe c3 3c ea 0a b9 3c 61 f1 02 bc 00 6b 1c bd
       0.023924962 0.022588212 -0.0079921195 -0.03818798
0002e0 c1 ca 68 bd fb 0c 5c bc b0 49 61 3d c5 46 60 bc
       -0.056833986 -0.013430829 0.055001915 -0.013688748
0002f0 43 fe f4 3c 50 f0 20 3d db 3d 13 3d ad b3 1f bb
       0.029906398 0.03929168 0.03594766 -0.002436857
000300 6e 47 1c 3d ff d9 95 3d e1 83 41 bb ad 17 89 bd
       0.03815406 0.0731697 -0.002952807 -0.06693969
000310 0f 03 5e 3d b8 2f 01 3c 7d 03 73 3d a4 7e d3 bc
       0.054202136 0.007884912 0.0593295 -0.025817223
000320 7f 46 72 bd ea 1a 81 3d 54 64 9f bd 1e 8e 00 3d
       -0.05914926 0.063039616 -0.07782808 0.031385534
000330 29 c6 03 3d 9f bf d1 3c e0 34 70 3d ca 96 86 bc
       0.032171402 0.025604067 0.058644176 -0.016429324
000340 a9 80 59 bd fb e6 e9 b9 cc 1c b1 3c 48 ca 54 3d
       -0.053101216 -0.00044613317 0.021620177 0.051950723
000350 df 75 87 bd 1b 5d 1c bc 9d 3d 1e bd d2 68 1a bd
       -0.06614279 -0.009543682 -0.038632978 -0.03769762
000360 94 73 56 bd 3a 43 68 bb c2 04 e9 bc c9 78 86 3d
       -0.052356318 -0.003544046 -0.028444652 0.06566007
000370 23 82 03 bd 20 0d 45 bc 47 2f a5 3c fd 39 ee 39
       -0.03210653 -0.012027055 0.020164145 0.00045438102
000380 29 64 9a bc 5e df 5f bd f6 44 43 3d e5 f5 98 bd
       -0.018846588 -0.05465638 0.04767319 -0.07468776
000390 45 ab 69 3b c3 59 c8 bc 4a 0a 47 3d 16 74 89 bc
       0.0035655063 -0.024456864 0.048593797 -0.016778987
0003a0 1d e3 4e 3c 09 bb 4e bc 80 1b 55 bd 78 df 4d 3d
       0.01262739 -0.012617835 -0.05202818 0.050261945
0003b0 5a a6 60 3d 90 47 75 ba 2c bc 9a bd de cb 7d 3d
       0.054846145 -0.0009356672 -0.07555422 0.061962
0003c0 7a 09 57 3c 26 1e 2a bd 3a e9 b4 bd 09 36 8f bc
       0.013124818 -0.041532658 -0.08833547 -0.01748182
0003d0 5d 94 ba bd da 53 93 bd 65 c5 42 3d 02 5e 1a 3d
       -0.09110329 -0.07193728 0.04755153 0.03768731
0003e0 04 a5 bd bd d9 29 87 3d 52 ba 39 bd 3d 59 e9 bc
       -0.0925999 0.06599779 -0.045343705 -0.028484935
0003f0 db 82 80 bd 44 9b 93 bd d6 33 95 3c b5 0e a1 bd
       -0.06274959 -0.07207349 0.018213194 -0.07864133

net.0.bias f4 [256]
000000 1e e7 44 bc 7c a7 81 3c 21 1a b4 3c 61 a0 a8 bd
       -0.012017993 0.015826933 0.021985115 -0.08233715
000010 a8 10 4d bd 8f df 54 3d 3d b7 2a 3d 8f 9f b2 bc
       -0.050064713 0.051971015 0.041678656 -0.0218046
000020 8e 61 15 bd 2f 12 99 3d 66 4f 08 3d a9 94 29 3d
       -0.03646999 0.07474171 0.033278845 0.04140154
000030 b0 6c 7c 3b ec 94 7e 3d 33 c5 10 bc 5c 16 89 bd
       0.0038516931 0.06215374 -0.008836078 -0.06693718
000040 e1 7b 7d bd bc f2 ce bc d8 3e 91 bd bb b4 95 bd
       -0.06188572 -0.02526223 -0.070920646 -0.07309862
000050 33 8c 24 3d 75 65 9a bd 8b d6 88 bd a0 b2 d4 ba
       0.040172767 -0.07538883 -0.06681546 -0.0016227551
000060 c8 16 99 bc d1 86 5d 3d 59 f9 07 bd bc e5 40 3c
       -0.01868762 0.05408365 -0.03319678 0.011773523
000070 62 c7 bb bd 80 bc b3 3c 4b 86 8b 3c b8 65 81 bd
       -0.09168889 0.02194047 0.01703181 -0.063182294
000080 ee 54 1a 3d 05 a9 15 bc d4 8f 66 3d d9 c9 48 bd
       0.03767865 -0.009134536 0.05628951 -0.049020622
000090 29 62 1e bd 7c 17 a4 bd 68 8e 88 bd af 14 a8 3b
       -0.03866783 -0.08012292 -0.06667787 0.005129419
0000a0 e7 94 90 3d 61 d0 29 bd b5 ab 3f bc df e5 99 3a
       0.07059651 -0.04145849 -0.011698653 0.001174148
0000b0 15 ff 01 bd ff 80 f0 3c 48 e9 47 bd c1 a0 c9 bc
       -0.031737406 0.029358385 -0.04880646 -0.024612786
0000c0 a9 e3 4b 3c 59 d8 1c bd 91 13 a9 3c b2 2f 85 bd
       0.012444415 -0.038292263 0.020639213 -0.06503238
0000d0 1f 82 80 bd 1b 75 8b bd 94 d0 ff 3c bb 29 5e bd
       -0.06274819 -0.068094455 0.031227387 -0.054239016
0000e0 c4 33 b0 ba 5b 6d 90 bd ed d5 50 3d 54 64 9a bd
       -0.0013443162 -0.07052108 0.050985266 -0.07538667
0000f0 d3 72 93 3d 90 b0 70 3c 42 ad 42 3d 5a 7a 1f 3d
       0.07199635 0.014690533 0.047528513 0.038935043
000100 b1 6a 6b bd be 34 0e 3c d9 c3 98 bd 6e 3a 77 bd
       -0.057474796 0.008679567 -0.0745923 -0.060358457
000110 6a ef ae 3c c0 3b 99 3d 6d ab 57 bc c8 55 d4 bc
       0.021354396 0.074820995 -0.01316343 -0.02591981
000120 15 44 36 3d 6b 37 4f 3c e5 5a ac bd b6 27 47 bd
       0.04449852 0.01264749 -0.08415774 -0.048621856
000130 ea f1 0f 3d 35 f4 aa bb 63 2d b7 bc fa 4e 65 bd
       0.035142817 -0.0052171 -0.02236051 -0.05598352
000140 ed 55 91 3d 7b 69 91 3d 97 bf 98 3d 47 65 35 3d
       0.07096467 0.07100197 0.07458418 0.04428604
000150 6b 75 1f bd e4 12 f1 38 b6 d6 4d bc 74 21 8d bd
       -0.038930338 0.00011495294 -0.012563398 -0.06891146
000160 78 f8 46 3d e0 e1 9e 3d d2 d5 89 3c fc de fe 3c
       0.048576802 0.07757926 0.01682559 0.031112187
000170 61 55 4b 3c f0 68 03 3d 10 f4 db bb 7f 7b 00 3d
       0.012410493 0.032082498 -0.006712444 0.031367775
000180 81 91 0d bd 26 dd 68 bd ab 8b 64 3d 27 25 3c bd
       -0.03456259 -0.05685153 0.05579726 -0.04593387
000190 4a 69 77 bd 06 3c 0d 3c f6 61 85 bd f2 d0 53 bb
       -0.060403146 0.008620268 -0.06512825 -0.0032320586
0001a0 9f ff 96 3b 37 ed 29 3b 0c aa 80 3d c8 98 e8 3b
       0.004608109 0.0025928745 0.06282434 0.007098291
0001b0 89 49 c1 3b b7 9d b6 3c 33 21 ea 3c 32 4b 25 bd
       0.0058986587 0.022292001 0.028580284 -0.040354915
0001c0 fe 2a 78 3d 9f 52 0a 3d f2 56 20 bc 86 e6 9b bd
       0.060587876 0.0337702 -0.009786354 -0.07612328
0001d0 e0 5d a0 bd d9 e4 5e 3d 53 a3 e4 3c 0b 6f f7 bc
       -0.07830405 0.054417465 0.02790991 -0.030204317
0001e0 3b 64 98 bd 70 d9 ba bd f3 28 04 bc a1 ee 9f bd
       -0.074409924 -0.09123504 -0.008066404 -0.07809187
0001f0 a6 25 2e 3c 8e 79 16 bd 20 dc 61 bc e5 67 72 bd
       0.010629093 -0.036737017 -0.013785392 -0.059181113
000200 76 e3 4a 3d aa 2d a5 bd dd 8d 9c bd a1 40 59 3c
       0.04953333 -0.0806535 -0.07644246 0.013260038
000210 4f b9 3c bd 7d e7 63 bd d0 b2 8f 3d ce 95 70 bc
       -0.04607516 -0.055640686 0.07016528 -0.014684154
000220 ed 6c 73 bd 8e a8 32 3d 79 c5 38 bd d6 33 a8 bd
       -0.05943005 0.043617778 -0.0451102 -0.08213012
000230 95 60 8d bd a7 84 70 bd 89 ed 6f bd 4d 59 a1 bd
       -0.06903187 -0.058720257 -0.05857614 -0.07878361
000240 b0 e2 ff 3b 4d d2 ff 3c 0c 06 b8 3c b4 28 2c bd
       0.0078090057 0.031228209 0.02246382 -0.042031005
000250 7e f7 a7 bc 6d ca 9d bc 8f 26 10 bd 11 90 3b 3d
       -0.020503756 -0.019261563 -0.035193022 0.04579169
000260 48 e3 26 bd 53 7d 10 3d 8e d0 12 bd d7 21 58 3d
       -0.040744096 0.03527577 -0.035843424 0.052766647
000270 a4 75 aa bd e6 98 bc bd 8b d0 a3 3c e3 e0 91 bd
       -0.083232194 -0.092088506 0.019996902 -0.07122972
000280 0b 3a fe bc 12 c1 a4 3d 5e 8e 5c 3c 53 00 17 bd
       -0.031033536 0.08044638 0.013461677 -0.036865544
000290 d7 9b c3 bc b1 83 ba 3c 9e 69 2e bd 03 5f c3 3a
       -0.023878021 0.022767873 -0.042581193 0.0014905635
0002a0 60 47 9f bd ac 67 80 bd 2a 7f 50 bd e6 bf b8 3a
       -0.077772856 -0.06269774 -0.050902523 0.0014095276
0002b0 87 8c 50 bd de b9 40 bd 13 fb f1 3c fd 40 a1 bd
       -0.050915267 -0.047052257 0.029538667 -0.07873724
0002c0 53 f8 1c 3d cf c2 56 3d d7 d5 09 bd 40 ef b6 bc
       0.038322758 0.052431878 -0.0336512 -0.02233088
0002d0 0b ff 78 3c 07 42 06 3d be 56 2f bc 6b 3b 15 bd
       0.015197526 0.032777812 -0.010701833 -0.03643362
0002e0 97 47 23 3c df 84 e2 ba 5c 9b 00 3d 6a f1 24 3d
       0.009965799 -0.001728203 0.031398162 0.040269293
0002f0 cb 74 68 3c 52 25 91 3d e1 4a 84 bd 69 5a d8 bd
       0.014188002 0.070871964 -0.064595945 -0.10564119
000300 25 c4 82 bd bd d5 0e bb 39 c7 e2 3c 06 e0 ca 3c
       -0.06385068 -0.0021794878 0.027682887 0.024765026
000310 17 e2 a6 bd c6 c7 75 bd e4 14 05 bd d5 89 6d bc
       -0.08148592 -0.060004972 -0.032490626 -0.014498194
000320 8f b5 75 3d aa 60 34 bb ae dd 79 bd 11 ab 5d bd
       0.0599876 -0.0027523437 -0.061002426 -0.05411822
000330 ea 66 2a 3c 89 b3 1c 3c 04 3c f2 3b 4b b7 a5 3c
       0.010400513 0.009564289 0.0073924083 0.020229002
000340 65 0c d1 bc fe 79 8b bd ef b0 f2 bc 19 12 c5 bd
       -0.025518605 -0.068103775 -0.029625384 -0.096225925
000350 cd 1a 14 3c 31 61 b0 3c c3 a1 95 3d cf d3 a6 bd
       0.009039593 0.02153072 0.07306244 -0.08145868
000360 58 24 dc 3c 4f 17 8f bd 6d c0 10 3d b9 9c 38 3d
       0.026872799 -0.06986868 0.03533976 0.045071337
000370 af 73 67 bc aa 14 99 bc 74 45 ba bb 78 09 8e 3d
       -0.014126702 -0.018686611 -0.005684549 0.069354
000380 0d 9c c4 3b 75 ce 86 bd 86 4a f9 3c 34 89 e8 3c
       0.006000048 -0.06582347 0.030431043 0.028385736
000390 e3 9c 0b 3d 13 f7 59 3c d8 77 ee bc cd 3b 49 3d
       0.034085166 0.013303536 -0.02910988 0.049129296
0003a0 8a 08 10 3d 63 eb 8e 3d a3 68 83 bd 76 80 d8 3c
       0.035164393 0.0697849 -0.06416442 0.026428442
0003b0 74 09 cc bc d7 a3 3d 3d b5 7e e3 bb f8 e2 8d bc
       -0.024906851 0.046298828 -0.006942595 -0.017320141
0003c0 6d bc 6b 3c a6 98 d9 3c e0 7c d0 bd 07 98 d1 3c
       0.014388186 0.026562046 -0.10180068 0.025585188
0003d0 f1 09 31 3d 66 91 83 bd 33 37 15 bd 14 45 42 bd
       0.04322237 -0.06424217 -0.036429595 -0.04742916
0003e0 f3 11 22 3c d1 46 8d bd c1 68 ae bd 7d d4 f6 bc
       0.009891975 -0.06898273 -0.08516074 -0.03013062
0003f0 82 62 1c bc 4a c5 3f bd 3a 19 1b bd f2 e2 11 3c
       -0.0095449705 -0.04681901 -0.037865855 0.008904206

net.2.weight f4 [128, 256]
000000 d3 c3 7a bd 59 b9 56 3d 22 ad 12 3d a2 8f 0e 3d
       -0.06122191 0.052422855 0.035809644 0.034804948
000010 8b f0 83 bd e4 cf 08 3d 4d aa 44 bc 84 f3 2a bd
       -0.06442364 0.033401385 -0.0120034935 -0.04173614
000020 0c cd 92 bc 9f ae 4f bc 84 7d c0 bc e1 34 df bc
       -0.01792004 -0.01267591 -0.02349735 -0.027246894
000030 34 fb 55 3d 17 a9 5b bd ae e8 df 3c 6d 7c 11 3c
       0.05224152 -0.053628054 0.02733263 0.008879763
000040 8f 26 47 bc b9 8d 11 3d b1 a5 c4 3c 8a 85 87 3c
       -0.012155189 0.035535548 0.02400479 0.016543169
000050 c2 65 9c 3c f8 a3 34 bd 62 e2 a9 3c f5 5c 40 3d
       0.01909149 -0.044101685 0.02073783 0.04696365
000060 32 80 b8 bb fa d1 4f 3c 22 af 0f 3d a9 bc 2c bd
       -0.0056305164 0.01268434 0.03507913 -0.042172108
000070 9f cf 4f 3c 46 6f 69 3d 2e c7 53 3d 36 13 06 3d
       0.012683778 0.056990884 0.051703624 0.032733165
000080 e5 da 36 bd 5f b9 e0 bc 18 7b 04 3c 97 5d 07 bd
       -0.044642348 -0.027432142 0.008085988 -0.03304824
000090 c7 9e 56 bc e0 c1 8a 3b 5b 6f 18 bc 40 c2 17 bb
       -0.013099379 0.0042345375 -0.009303893 -0.0023156554
0000a0 20 f0 88 bb 9f d7 2d bb 46 b2 25 bd 67 93 4f 3d
       -0.0041790158 -0.0026526225 -0.040453218 0.050677683
0000b0 1e e3 82 bd a8 97 d4 bc 9e a6 c2 bc d5 26 af bd
       -0.063909754 -0.025951222 -0.02376109 -0.085523285
0000c0 24 52 7e bd bd 21 67 3c ca 5d 54 bd 73 5d 45 bd
       -0.062090054 0.014107165 -0.051847257 -0.048184823
0000d0 b0 a5 7c bd 39 79 52 3d 6a 71 93 3c ed b9 ba 3c
       -0.06168145 0.05138514 0.017998416 0.022793734
0000e0 74 f5 ac bc da a0 86 3d 53 3e 14 3d 7c 43 61 bd
       -0.021113135 0.06573649 0.03619225 -0.054996
0000f0 ec 1a ca 3c 40 87 35 3c 41 26 ab 3c 1e ba f4 bc
       0.02467104 0.011079609 0.020892264 -0.029873904
000100 c1 6b 4c bd c4 0f 87 3c 74 ac 7d 3d 60 5c a2 bc
       -0.04990745 0.01648701 0.061932042 -0.019819438
000110 ac ee 3f bd be 41 0c bd 24 47 c2 bc 92 15 2b 3d
       -0.046858475 -0.034242384 -0.023715563 0.041768618
000120 5e 0d 63 bd e3 f8 e1 bb 58 e7 03 bd d7 90 8a bd
       -0.05543267 -0.0068961247 -0.03220305 -0.06765907
000130 20 b9 b9 3c 42 0c 85 3c 9c c8 c4 3c 5d 9a b3 bc
       0.022671282 0.016241197 0.02402144 -0.021924192
000140 04 d6 d3 3c f8 64 51 3d 00 d4 dd b9 e7 b4 70 3d
       0.025858887 0.051121682 -0.00042310357 0.058766272
000150 48 b5 60 bc 6f f3 63 bd 46 f8 3d 3c 38 48 77 bd
       -0.013715096 -0.05565208 0.0115948375 -0.060371608
000160 1e 89 29 bd c7 0b ee bc 94 ee 55 3d f2 f5 40 bd
       -0.04139053 -0.02905835 0.05222948 -0.04710955
000170 f1 11 b8 ba 01 b0 61 3c 73 31 7b 3d ea 0f 19 3d
       -0.0014043433 0.013774873 0.061326455 0.037368692
000180 c8 90 ef bc f0 bb bc bb 60 d0 65 3d 15 ac 18 3d
       -0.029243842 -0.0057597086 0.056106925 0.037273485
000190 dd 34 1e bc 68 85 1c bc ac 6a 10 3c 66 93 c4 bb
       -0.009656158 -0.009553291 0.008814495 -0.0059990166
0001a0 e4 82 43 bd 44 d1 d0 bc 12 fe 47 bd 91 db 74 bd
       -0.04773225 -0.02549041 -0.048826285 -0.059779707
0001b0 87 a9 3e bd 14 5d d1 bc ec 52 44 bd 96 f7 73 3d
       -0.046548393 -0.025557078 -0.047930643 0.05956229
0001c0 c5 4b 65 3d 88 5f 02 3d 54 dd d3 3c 35 88 5d 3c
       0.055980463 0.031829387 0.025862373 0.013521244
0001d0 9a 08 78 3d 0c cc d9 bc ae 36 25 3c f0 f2 a3 3b
       0.060555078 -0.026586555 0.010083837 0.0050033256
0001e0 04 dc 62 3d e4 97 02 3d 7e 71 25 bd 60 cb 8d bb
       0.055385605 0.031883135 -0.040391438 -0.0043272227
0001f0 e8 66 0f 3c 8a 91 71 bd e5 9d 59 3d 46 63 67 bd
       0.008752562 -0.058976687 0.053129096 -0.05649116
000200 0c da d6 3c 54 b7 30 bd 10 35 00 bd 77 84 b0 bc
       0.02622702 -0.043143585 -0.031300604 -0.02154754
000210 48 fa 30 bd c4 9f 6b bd 6c cf fb 3c f4 40 08 bd
       -0.043207437 -0.05752541 0.030738555 -0.03326507
000220 df 35 2e bd d0 07 1c 3c 45 91 b1 3b fe ca 13 3d
       -0.042531844 0.009523347 0.005418929 0.03608226
000230 e6 50 0a bd 00 9e 1d 3c 15 76 b6 3c c4 51 76 3d
       -0.033768557 0.00962019 0.022273103 0.06013657
000240 10 3a a6 bc 2f a6 29 bd c1 bb 55 3d 56 10 17 3d
       -0.020291358 -0.04141825 0.05218101 0.036880814
000250 2e 32 2d bd 34 4b 81 3d 6d 85 fb 3c 08 3d ea bc
       -0.042284183 0.06313172 0.03070327 -0.028593555
000260 8c 41 31 bc 86 9b 01 bd 9b a5 65 bd 40 3f bd 3c
       -0.01081885 -0.03164246 -0.056066137 0.023101449
000270 91 83 c3 bc ec 8d fc 3c 4c c2 fa 3c eb ab e5 3a
       -0.023866447 0.030829392 0.030610226 0.0017522549
000280 94 e0 d9 bc e0 9a 74 3d 30 67 34 bc 3d 84 a1 3c
       -0.026596345 0.059718013 -0.01101093 0.019716376
000290 e0 5c 8b bc 00 a6 ea 39 54 66 0e 3d 0e c7 87 bc
       -0.01701206 0.00044755638 0.034765556 -0.016574409
0002a0 48 00 76 3d be 1c 02 bc c9 42 fa 3c 64 86 f3 bc
       0.060058862 -0.007941423 0.030549424 -0.029727168
0002b0 16 51 73 3d 58 97 c4 3b ec 58 f4 bc ee db 55 bd
       0.0594035 0.005999487 -0.029827558 -0.052211694
0002c0 14 92 c5 3c a0 5d 27 3d 20 46 3d 3c f0 fa 1b 3d
       0.024117507 0.040860772 0.011552364 0.03808111
0002d0 a8 c4 e0 bc 03 31 b8 bc 14 b7 85 3c be 7f 8e 3c
       -0.027437523 -0.022484308 0.01632265 0.017394897
0002e0 33 80 38 3c 90 cf ce 3c 7f d4 47 bd 90 14 77 bd
       0.011261034 0.025245458 -0.048786636 -0.060322344
0002f0 5a 03 8c 3c 80 3a 58 ba 3b c7 8a bc 30 f1 3d bc
       0.017091442 -0.0008248463 -0.016940704 -0.011593148
000300 75 a1 83 bd 84 d4 88 bd bd 67 b4 3b 7e ff 80 bd
       -0.0642728 -0.06681159 0.0055055306 -0.06298731
000310 1d 38 57 bd 0b 74 25 bd 05 6e 32 bd b2 64 ae bb
       -0.05254375 -0.04039387 -0.043561954 -0.0053220624
000320 a0 04 13 3b da 70 4d bd a0 5b 09 bd cb 46 19 3d
       0.0022433177 -0.05015645 -0.033534646 0.03742103
000330 d4 de 20 bd 40 43 c1 3c 37 9c 0e bd b8 6a 48 bd
       -0.039275005 0.023591638 -0.034816947 -0.0489299
000340 c7 28 8b 3c 78 83 11 3c ba 46 0d 3d 8b 6f 2f bd
       0.016987218 0.008881442 0.03449128 -0.042830985
000350 0d f1 34 3c 8d 16 76 bd b0 99 9e bc ca 03 38 3d
       0.011043799 -0.0600801 -0.019360393 0.04492549
000360 5e 40 0e 3c d0 5d 65 3c 40 c9 18 3b 70 fb a4 3b
       0.0086823385 0.013999417 0.0023313314 0.0050348565
000370 00 e6 05 b9 a8 10 3b 3c 54 60 e4 3c a5 26 86 bd
       -0.0001276955 0.011417545 0.027877964 -0.065503396
000380 7f 55 14 3c 64 c9 06 bc 68 ab 6a 3c 28 d5 4b 3d
       0.009053587 -0.008226726 0.014323093 0.04976383
000390 d3 59 46 bd e6 d2 49 bd 32 fc fc bc f3 b8 82 bd
       -0.048425507 -0.049273394 -0.030881975 -0.063829325
0003a0 cd 9f b2 bb a0 fa 52 bd 9c 51 c5 3c 44 76 b5 bc
       -0.0054511786 -0.051508546 0.024086766 -0.02215112
0003b0 aa 60 1c bd fe 21 10 3d b2 87 e6 3b 7b 2c d0 3c
       -0.038178124 0.035188667 0.007035219 0.025411835
0003c0 e6 e3 f1 38 4a 06 46 3d 2e 63 1d 3c 8c f2 bd bb
       0.00011534225 0.04834584 0.009606166 -0.005796736
0003d0 b7 51 de 3c 65 09 28 3d 11 f6 2d bd 88 8f c4 bc
       0.027138574 0.041024584 -0.042470995 -0.023994222
0003e0 42 d1 55 bc b4 c9 5b bd 66 24 a9 bd b7 80 7f bd
       -0.013050379 -0.053659156 -0.082588956 -0.06237861
0003f0 b5 cf 9f 3a cd cf 3a 3c d0 c6 ab bc 97 9a 73 3c
       0.0012192639 0.011402083 -0.020968825 0.0148684

net.2.bias f4 [128]
000000 ba 11 14 bd b5 00 08 be 02 91 d6 bd 82 9f d5 bb
       -0.036149718 -0.1328152 -0.10476877 -0.006519259
000010 00 ef c8 bd 28 d7 6b bd df ed c9 bd 5a f9 40 bd
       -0.09811211 -0.057578236 -0.098598234 -0.0471128
000020 4a 9b 9e bd 57 0a 34 bd 42 25 06 bd 58 e0 ce bd
       -0.07744463 -0.043955173 -0.032750376 -0.10101384
000030 0e 93 8d bd f0 51 4e bd fa 04 11 be b8 65 b8 bd
       -0.06912814 -0.05037111 -0.14162055 -0.09003776
000040 07 24 38 be 0c 29 c4 bd 66 d2 ea bd 0c b8 d7 bb
       -0.17982493 -0.095781416 -0.114659116 -0.0065832194
000050 7d 82 0b bc 30 ea a2 ba 22 f9 5e bc 7a 2b a2 ba
       -0.008514998 -0.0012429412 -0.013609203 -0.0012372576
000060 97 d0 12 bb 82 23 e3 bd a9 93 69 bd 7c 46 9e bc
       -0.0022402161 -0.11090757 -0.057025585 -0.019320719
000070 0d f6 17 bd 73 10 21 be 90 0f d2 bd 85 4b 2d bc
       -0.037099887 -0.15728931 -0.102568746 -0.010577087
000080 c3 27 8b bc b0 4b 7d be c3 4e a9 bc d2 86 0f be
       -0.016986733 -0.24735904 -0.02066744 -0.14016274
000090 39 d7 aa bc 7d ca 2a bd d9 c7 54 bc d0 6b c2 bd
       -0.02085458 -0.041697014 -0.0129871005 -0.0949322
0000a0 ad 05 c1 bd d5 a2 19 be 0c 36 dd bd 40 c4 bd be
       -0.09424911 -0.15003522 -0.10801324 -0.3706379
0000b0 63 e6 3b be d1 6e dc bd d9 8a b5 ba ca 40 50 bc
       -0.18349604 -0.10763324 -0.0013850584 -0.012710759
0000c0 12 15 de bd 4b 6b 35 bb 7d 1e a5 bd f0 db 0e be
       -0.108438626 -0.002768236 -0.08062456 -0.13951087
0000d0 72 8c e4 bc 6e 3a e4 bd 81 87 46 bc b4 4c 4d bd
       -0.027899 -0.11143957 -0.012117268 -0.050121978
0000e0 aa 68 a6 bd a2 a9 3d be 55 6a 3e be 05 6b 60 bd
       -0.08125432 -0.18521741 -0.1859525 -0.05478956
0000f0 86 a3 0d bd 06 d9 f6 bc a5 86 bd bd 23 d8 0a be
       -0.034579776 -0.030132782 -0.09254197 -0.13559012
000100 0e 1d 50 bd 3e 7b 6e be 88 d0 9a bd fa 77 6a bd
       -0.05080896 -0.232892 -0.075593054 -0.057243325
000110 4e b7 1a bd d7 10 a8 bd 92 2e d6 bb bf 60 45 bb
       -0.03777247 -0.08206337 -0.0065363133 -0.003011748
000120 3d 10 28 bd f5 92 16 bd 9e 02 4b bd 21 09 6b bd
       -0.04103111 -0.036761243 -0.049563043 -0.057381753
000130 5e f6 7c bc bc 7c 2e bc 59 f9 b2 bc bb 84 bb bd
       -0.015439598 -0.010649856 -0.021847414 -0.09156176
000140 38 7b c3 bd 90 ae 19 3c 84 48 c4 bd a0 66 c2 bc
       -0.095449865 0.009379998 -0.09584144 -0.023730576
000150 f3 21 af bd c0 2e 22 be fd 61 5e bd 1b f8 d0 bd
       -0.08551397 -0.15838146 -0.054292668 -0.10203572
000160 52 e8 f5 bc 74 55 a3 bc c3 00 b6 bc 2e e9 39 bc
       -0.030018006 -0.019938208 -0.02221716 -0.011347098
000170 9c fb 18 bc f5 8b 05 ba 24 97 14 be be 1d 81 bd
       -0.009337332 -0.00050944026 -0.1451078 -0.06304501
000180 1f 21 a4 bd e7 7f 19 be 73 c0 96 be 12 cf 38 be
       -0.0801413 -0.14990197 -0.29443702 -0.18047741
000190 b8 2b 8d bb 5c 7b 43 bd 75 80 cc bd fc d2 0d bd
       -0.00430819 -0.047725067 -0.09985439 -0.03462504
0001a0 2d d3 e9 bc 5e 10 61 bb 0f 43 b1 bd 22 c0 02 be
       -0.02854308 -0.003434203 -0.086553685 -0.12768605
0001b0 0c a5 b5 bd c3 5a 99 bc 70 e7 a6 bd 1d 7d 13 be
       -0.08869371 -0.018720036 -0.08149612 -0.14403196
0001c0 c4 23 2f bd 9c e2 ae 3c b0 a7 71 bd a0 cb 93 ba
       -0.042758718 0.02134829 -0.05899781 -0.0011275895
0001d0 d5 a4 87 bc 09 19 ef bd fc a4 88 bd 49 c7 b7 bc
       -0.01655809 -0.11674697 -0.06672093 -0.022433894
0001e0 fa 4c 84 bd 7c 8a c6 bd 3c 50 8d bd 15 23 0a bd
       -0.064599946 -0.096943825 -0.06900069 -0.033724863
0001f0 f9 c4 2f bd 90 c9 fd bd 0f f4 c6 b9 05 a8 cb be
       -0.042912457 -0.123919606 -0.0003794734 -0.39776626

net.4.weight f4 [64, 128]
000000 04 45 10 3c b5 e9 1b bd 9c aa 20 3d 1f 48 57 3c
       0.008805517 -0.038064677 0.039225206 0.013139754
000010 45 1e 88 bd ae 12 86 bc 8d 92 4c bd 73 69 47 bd
       -0.066463985 -0.016366329 -0.04994445 -0.04868455
000020 65 24 a0 bc f3 f4 ae bd 34 99 88 3c d8 a8 e2 3c
       -0.019548604 -0.08542814 0.016674615 0.027668402
000030 8c dd 7c 3d ac e4 e6 bc 06 4b af bd 84 30 f4 3b
       0.06173472 -0.028185211 -0.085592315 0.0074520726
000040 03 fa b7 bc 73 d7 05 bd 35 72 9a bc 1a f5 82 3c
       -0.022458082 -0.03267617 -0.018853286 0.015986014
000050 ed 30 86 3c c8 59 4f 3d 49 30 a1 bd dc 5a 64 bd
       0.016380752 0.05062273 -0.07870538 -0.055750713
000060 d1 d2 e5 bd 72 8b ce 3c b0 b0 99 3d 64 0c a2 3d
       -0.11221851 0.025212977 0.075044036 0.079125196
000070 3d a0 11 bd 30 73 86 3d 48 1f 7a bd c8 b4 7f 3d
       -0.035553206 0.06564939 -0.06106499 0.062428266
000080 6c 90 ce bc 18 25 82 3c 9a 80 94 3c 72 2f bf bd
       -0.02521535 0.015886828 0.018127728 -0.09335221
000090 08 fb 98 bd 3b 06 e9 3c a8 54 b0 3d 60 12 32 bd
       -0.074697554 0.028445354 0.08609897 -0.043474555
0000a0 3f fa 78 bd 0b 08 60 bd 34 b4 40 bd f8 89 73 bd
       -0.06078553 -0.05469517 -0.047046855 -0.05945775
0000b0 e1 4a 98 3d 14 44 3b 3d cd 10 7d 3d 69 9a 60 bd
       0.07436157 0.04571922 0.0617836 -0.054834757
0000c0 79 7d 12 bd 01 48 8c bd 62 7e 9f 3d f1 99 04 bc
       -0.03576419 -0.06849671 0.077877775 -0.008093343
0000d0 95 0d 33 bc 65 74 09 bd 95 7b 18 bd 99 82 8c 3d
       -0.010928531 -0.033558268 -0.037227232 0.06860847
0000e0 e0 ba 44 3d b8 22 bf bc 13 00 72 bc d4 f0 74 3d
       0.04802978 -0.023331985 -0.0147705255 0.059799984
0000f0 a1 57 61 bd d0 41 e9 3c 8d bd 04 3d ba 05 0a 3c
       -0.05501521 0.028473765 0.032407332 0.008424217
000100 b7 54 64 bc ce 72 1a 3c ea cf 08 bd fd 65 e2 3c
       -0.013936213 0.009426786 -0.033401407 0.027636522
000110 b7 58 9f 3b fd 73 e3 bd d9 ab b6 3d 47 c0 92 bd
       0.0048628706 -0.111061074 0.08919496 -0.0716558
000120 e6 38 2d 3d 9e 7e a3 3c 23 f8 96 bd ea 75 b2 3d
       0.04229059 0.019957837 -0.07371547 0.087138966
000130 2b 2e 0e 3d b9 a9 d3 bc b9 f4 62 3c 48 61 74 3d
       0.034711998 -0.025837766 0.013852292 0.059663087
000140 ae 99 95 3d 89 6c 6d 3d e9 08 9b bd 97 fb 82 3d
       0.07304703 0.057964835 -0.07570059 0.06395643
000150 1b 62 a8 3d 8c 2e 24 bd d9 c6 b8 bc f3 f6 a2 bc
       0.08221837 -0.040083453 -0.022555755 -0.019893145
000160 fe f5 9f 3d 62 0b 29 3d f8 9c e2 3c 96 92 cf 3d
       0.07810591 0.04127062 0.02766274 0.10135381
000170 2c ad 40 bc d8 1a 73 bd 7a db b2 3d 85 1f 29 bd
       -0.011760037 -0.059351772 0.08733268 -0.041289825
000180 15 5b 9e bd 54 55 84 bd 18 68 0c bc eb 4a ba ba
       -0.07732216 -0.064615875 -0.00856974 -0.0014213001
000190 94 48 c2 3d 29 4e 02 bd a7 93 8f bc 45 5c 8b 3d
       0.094864994 -0.03181282 -0.01752646 0.068047084
0001a0 88 69 c2 3c 37 60 17 3c bc 5d 8c bd 85 d2 af 3c
       0.023731962 0.009239248 -0.06853816 0.021462688
0001b0 fc 4f 3a bd c5 e3 fd 3d 06 1f c7 b9 a0 61 0b bc
       -0.045486435 0.12396959 -0.00037979352 -0.008507162
0001c0 cb 8f 4f 3d fc c9 9f bd 3b 90 02 bc 43 2f 29 3d
       0.05067424 -0.07802197 -0.007968958 0.041304838
0001d0 e7 97 05 bd 27 16 41 bd e4 db 4a 3d bc f5 2e bc
       -0.03261557 -0.047140267 0.04952611 -0.010678705
0001e0 7b dd e3 ba e0 06 a4 3d 36 31 e2 bc 6f 66 7d 3c
       -0.0017384732 0.08009124 -0.027611356 0.015466317
0001f0 45 17 9f bd 4f 36 84 bc 03 46 51 bb 15 ed fe bc
       -0.0776811 -0.016139178 -0.00319326 -0.031118909
000200 dc ad e8 bc 5d 2a a8 3d 59 4b b5 3c 24 d1 83 bd
       -0.028403215 0.08211205 0.022130655 -0.06436375
000210 64 76 47 3d 41 fd 85 3d fd 97 54 bd c9 d3 29 bd
       0.04869689 0.06542445 -0.05190276 -0.04146174
000220 51 4a 56 3d 31 57 59 3c c3 2f 22 bd a1 28 78 3d
       0.052316967 0.013265417 -0.03959633 0.06058562
000230 7d fa 4f bd 91 fb 24 bd cb 7c ee 3a a7 56 99 3d
       -0.050775994 -0.040278975 0.001819515 0.07487231
000240 12 31 58 bb 57 83 a1 3c 30 c4 69 3d fe 7e 82 3d
       -0.0032988233 0.019715948 0.057071865 0.06371878
000250 58 e1 49 bb d9 8b aa bd d4 ce 13 3d b2 77 3e 3d
       -0.0030804481 -0.08327455 0.03608592 0.04650087
000260 1b 1b bf 3c 94 bc 3f bd 45 d7 4a 3b 59 3a cb bc
       0.023328355 -0.0468107 0.0030951065 -0.024808096
000270 91 60 15 3d 71 a0 38 bd 9d a3 8e bc e6 49 95 bd
       0.036469046 -0.045074884 -0.017412001 -0.07289486
000280 25 bf 25 3d 91 f8 b9 bd 5f 14 b1 3c bc 1f 94 bd
       0.040465493 -0.090806134 0.021616159 -0.07232615
000290 ac f7 f0 bc 5b 46 24 ba 04 7c 93 bd eb 6d a0 bd
       -0.029414974 -0.00062665873 -0.072013885 -0.07833465
0002a0 3a 5a 87 3d f0 64 3f 3e 87 43 0e 3d 21 a9 ec bc
       0.06609006 0.18690848 0.034732368 -0.02888924
0002b0 c4 cf 0e 3c 1f 2c 96 3d 04 9f d1 3c 1d d2 cd bc
       0.008716527 0.07332634 0.02558852 -0.025124604
0002c0 2a 45 63 bd 84 21 a8 3d c8 44 84 bd 2e cc 96 3d
       -0.055485882 0.082095176 -0.064584315 0.07363163
0002d0 43 02 6e 3d bd 8b f2 3c 86 af 60 3d d5 4d 99 3d
       0.058107626 0.029607648 0.054854892 0.074855484
0002e0 73 48 10 3d f0 53 98 bd bd b0 f7 bc 64 1f 98 3d
       0.035225343 -0.07437885 -0.030235643 0.07427862
0002f0 1f 16 20 bd 64 da 2c bd e4 ca 79 bc c5 93 a5 3d
       -0.039083596 -0.04220046 -0.015246127 0.080848254
000300 fb e3 92 3d 83 fc 84 bd 8b 86 6d bd 92 58 e2 3c
       0.0717239 -0.06493475 -0.05798964 0.027630124
000310 b3 2c 6b bc e5 bb 0c bd 40 99 79 bd e6 da c3 ba
       -0.014353919 -0.034358878 -0.060937166 -0.0014942556
000320 ab 3e b5 bb 17 17 0b 3d 0b 05 c5 3c 29 ab cb bc
       -0.0055311522 0.033957567 0.024050256 -0.024861889
000330 ad f3 2d bc f7 22 62 bd d4 4a 90 3d d7 eb bb bd
       -0.010617179 -0.055209126 0.07045522 -0.09175842
000340 1d a6 7d 3d 76 b3 a4 3d 5e 2b 6a 3c 1a 7f 57 bc
       0.061925996 0.08042042 0.014292566 -0.013152862
000350 f9 6c d5 3b a6 b4 58 3d d4 b9 8f 3d 12 9c ed bc
       0.0065132347 0.052906655 0.07017866 -0.029005084
000360 17 e8 34 bd 13 bf bd 3c 90 7a 8e 3d ff a5 c4 3b
       -0.04416665 0.0231624 0.06956971 0.0060012336
000370 fb e9 a5 bc c8 5b 92 bd 22 ca 17 3d 0a 1e 35 bd
       -0.020253172 -0.07146412 0.037058003 -0.0442181
000380 21 d8 3e bd 71 7a 8e 3c 5a 29 47 3d f5 de 83 bd
       -0.046592835 0.017392369 0.04862342 -0.0643901
000390 37 16 44 bc af ac 58 3c a4 aa 97 bd ab e2 51 3d
       -0.011968187 0.013224765 -0.07405594 0.051241558
0003a0 d9 3e 2a 3b 61 f8 ae bd aa e8 5c 3d ba fa b5 bd
       0.0025977402 -0.08543468 0.053932823 -0.08885713
0003b0 21 f3 be 3c 8a b9 28 3d e3 61 d7 3c 1e 11 1d bb
       0.023309292 0.04119257 0.026291793 -0.0023966501
0003c0 cb 24 20 bd 40 34 57 be b5 b7 f3 bc 35 ad 99 3d
       -0.03909759 -0.21016026 -0.029750684 0.0750374
0003d0 64 ec ad 3b 57 70 2f bd 42 a7 4d bd 20 25 0c bd
       0.005307721 -0.042831745 -0.050208338 -0.034215093
0003e0 50 a0 b5 3c 36 8a 64 3d d3 ec 19 3b 4a 3b 05 3d
       0.02217117 0.05579587 0.0023487105 0.032527246
0003f0 e3 a9 9a bd 8f 4b b4 3b 4a 03 b9 3c 93 b1 f2 3c
       -0.075519346 0.0055021713 0.022584576 0.02962569

net.4.bias f4 [64]
000000 36 41 af bd 3d 0f 99 bd cb 5d 39 bd 4c c5 2c bd
       -0.0855736 -0.074736096 -0.045255464 -0.042180344
000010 24 e3 7c bd 5a d2 1e bd e6 f0 07 3d af 75 a6 bd
       -0.061740056 -0.038774826 0.033188723 -0.08127915
000020 8f 48 0a bd d0 4e 3f be b8 11 48 bd f1 ad ae bd
       -0.033760604 -0.18682408 -0.048845023 -0.085292704
000030 47 43 bd bd 4d ee c1 bd b6 e9 20 bd 4d f4 aa bd
       -0.09241348 -0.094692804 -0.039285384 -0.08347378
000040 1f 3d d3 bd 34 e4 ed bc 01 e8 40 bd 82 66 b1 bc
       -0.10314392 -0.02903948 -0.047096256 -0.021655325
000050 45 c2 40 bd 24 62 c9 bd b7 c4 0f be 96 53 ac bc
       -0.04706027 -0.09833172 -0.14039885 -0.02103595
000060 a8 5a 51 bd d6 e2 26 bd 26 dd 88 bc b3 5a d3 bd
       -0.051111847 -0.04074367 -0.016707014 -0.10320034
000070 b9 b4 98 bd 70 f2 86 bd f4 af 9a bd 84 db 27 bd
       -0.07456345 -0.0658921 -0.07553092 -0.04098083
000080 1a 82 39 bd 6b 6f 70 bd 8e 39 02 bd bd fe 36 bd
       -0.04529009 -0.058700006 -0.03179317 -0.04467653
000090 86 2d a2 3d 48 0f dd bd 5d 14 ec bc 2a 2c 47 bd
       0.07918839 -0.1079393 -0.028818304 -0.048626103
0000a0 f4 c5 a3 bd 1f 81 c8 bc 55 71 0a bd 5d 99 39 bd
       -0.07996741 -0.024475632 -0.033799488 -0.045312274
0000b0 17 78 61 bd 8d 4e 9e bd fb de 02 be 4d a1 e3 bd
       -0.055046167 -0.07729826 -0.12780373 -0.1111475
0000c0 31 67 aa bd 03 f4 b9 ba 43 99 c7 bd fa 3b 24 bd
       -0.083204634 -0.0014187101 -0.09746029 -0.04009626
0000d0 a9 c6 a7 bd 19 bf e2 bd 0b 68 d6 bc a0 11 fd 3c
       -0.08192188 -0.11071605 -0.026172658 0.030892193
0000e0 a6 3e a0 bd 86 38 5a bc 78 7e 2b bd 94 61 bf bd
       -0.07824449 -0.01331914 -0.041868657 -0.093447834
0000f0 30 22 92 bd 62 c0 7e bd 41 2a 1c bc 55 57 27 be
       -0.07135427 -0.06219519 -0.0095315585 -0.16341908

net.6.weight f4 [1, 64]
000000 be b8 e1 bc 97 85 80 be d6 a4 c3 bd 26 f0 e9 bc
       -0.027553912 -0.2510192 -0.09552924 -0.028556895
000010 69 a2 80 be 15 73 20 3c be 98 38 3e 4e 42 f0 3c
       -0.2512391 0.009793063 0.18027017 0.029328492
000020 7e b8 e7 bd 32 ad 6c bc 64 d3 77 3d ae 1d 1d 3d
       -0.11314486 -0.01444559 0.060504332 0.038358383
000030 60 00 4b 3e ae a7 31 bd 2c 65 f4 bc a2 b6 0f 3e
       0.19824362 -0.043372802 -0.029833399 0.14034513
000040 c1 a3 fa bc 6b d8 01 3d bc 05 81 3c 8e 32 4c bd
       -0.030595662 0.031700533 0.015749805 -0.0498529
000050 2b 38 9d bd 79 43 66 3d 86 b5 bd bd ab 78 41 3c
       -0.07676729 0.05621669 -0.092631385 0.011808555
000060 18 d2 af 3d 25 22 f7 bd 13 11 4b bc ea f8 fc 3d
       0.08584994 -0.120670594 -0.0123942075 0.12352164
000070 a5 f4 b0 bc d9 c4 5a 3d 2a 26 0d bd 8c b8 07 3d
       -0.02160103 0.053410385 -0.034460224 0.033134982
000080 50 2d ea 3a 7b 6d ac bc fd 31 0a bd 9a a1 dc bd
       0.0017866287 -0.021048298 -0.03373908 -0.107730106
000090 27 8c b2 3e 08 60 76 bc 1a d2 d4 bd 19 83 0e 3c
       0.34872553 -0.015037544 -0.10391636 0.008698248
0000a0 fe cf e6 bb 1f fe e5 3c d1 49 c1 bd d2 80 d4 bd
       -0.0070438376 0.028075276 -0.094379075 -0.10376133
0000b0 c9 02 63 3b b8 31 04 3d f4 12 38 3e ff 31 9b 3d
       0.0034639111 0.032273978 0.1797598 0.075778954
0000c0 ca 2f 47 be db 24 14 bb 36 b2 20 bd b1 dd e2 bc
       -0.19451824 -0.0022604975 -0.039232455 -0.027693601
0000d0 ee cb b0 bd 81 fb c4 bd a8 ae 0e 3c fb 7d e3 3e
       -0.086326465 -0.09618283 0.0087086335 0.44432053
0000e0 81 99 a0 3d 96 d0 8a 3d 0f 06 94 bc 0c 88 d1 3c
       0.078417785 0.06778066 -0.018069295 0.025577568
0000f0 fb 54 1e bd d1 06 b7 3d ee d9 10 3d 8f 78 54 3e
       -0.038655262 0.08936847 0.035364084 0.20749114
