src/sliding_tiles/sliding_tiles_vanilla_mse.pth (torch, 76220 bytes, 5 tensors)

net.0.weight f4 [128, 77]
00000000: 9b69 c6bd e778 46bc ba67 61bc a74b 6ebd
00000010: 37f0 453d a739 cdbd 426d 66bd c5c6 11bc
00000020: 820f 6abd 8e4f cabd e078 6ebd c955 cebc
00000030: ecfc 393c cc73 4d3c e10a 2cbc 8eee 17bd
00000040: c861 b43c dd21 66bd c7cb 8e3d 3dca 2f3d
00000050: c89a 8cbd 3a0f a43d 7320 dc3d a300 523d
00000060: 402c c3bd c26e 0ebe 54a3 8b3d cb51 153c
00000070: bbe6 f1bc c4f4 63bd 7187 53bd 54fe bbbd
00000080: 9199 00be b87e 40bb 1eb8 d73c 46ea 41bd
00000090: 62f7 2bbc 46fb bb3c 5d42 b13c 282c b2bd
000000a0: a244 08bd 56ea c23c 7a5c 6e3c 605f 72bd
000000b0: 8d97 e33b 6485 d2bd 1022 04be 7f9f 553c
000000c0: 0aaa ccbd 2885 c6bd b1d2 9abd bc29 55bc
000000d0: fd5b e3bc 1f6c b13c 8f74 d63c 16c9 86bd
000000e0: a63a aebd d799 8abd 38e8 4fbc c3c7 e5bb
000000f0: 95cf e53c 10ea c1bd 70d3 af3c 3a8b 10bd
00000100: 97c7 ad3c aa7e 933c 5189 54bd 9230 0e3d
00000110: e803 4abd 60b5 a5bd ae91 34bc fa03 a03b
00000120: 75bb d73a 4663 8a3d b3d3 b0bd be02 14bf
00000130: 5ef2 96be dbd7 dd3d 6fa9 90bd b1cd d2bd
00000140: d239 adbb 6d76 9abd c22b 87bd 67a9 1ebd
00000150: 8364 aabd e566 c8bd 1214 473d 3511 afbd
00000160: a38c 313d afba 3d3d 61cd b6bd 6d5c d3bc
00000170: 6754 253d 97d1 14bd 924a 8cbd 7d48 8cbd
00000180: 6a13 b6bc e942 a6bb 4ee9 87bc b8c7 5b3d
00000190: bda7 80bd b72d e8bd e444 dcbd 8798 043b
000001a0: 7bcd 883c e58e 9dbd 38e7 51bd 86d4 a53d
000001b0: 4d08 dc3d bcb3 e23d b58d b4bd 957b 83bd
000001c0: e500 b8bd c05a 5f3d 5008 dd3d 6c74 e2bd
000001d0: 3080 b8bc b253 a7bd 91f8 8b3c 1850 b63d
000001e0: 0201 883c 9d64 0ebd 6756 e93c 099e b1bd
000001f0: ca41 9e3d c9e4 6f3c 1ebe a43d eb4a 9d3d
00000200: 0f36 97bd 84d3 4abc 33e5 ee3c a33c f83c
00000210: 6221 523d ffca 80bd 91ec 563d 927c 88bd
00000220: a70d ba3d f0d8 7dbd 91e2 a63b 57b6 a1bd
00000230: 51bb d83d 869f 953d 79e2 fabc d06e 9ebd
00000240: 7828 b63c 6869 9dbd 9d9f 98bc 930d 863c
00000250: 839a 48bc 0b38 6c3c e64a c73c d693 81bd
00000260: 4976 8e3d 6b91 443d 8ff3 1c3e 836f 0abd
00000270: 8288 dabd 5c26 07be c5dc 17bd e488 6dbc
00000280: 3a01 3d3d 7f37 7a3c 2b31 793d 2611 553d
00000290: 4c08 6ebd 382f ee3d cccd f5bd 97f4 263b
000002a0: 20ad ad3b 6238 1dbd 84ba adbc 12f6 44bd
000002b0: 1d6c 41bc c2ac e63d 30b9 d43d 3cb2 b83c
000002c0: ab02 413d a633 9ebb f968 dabb 6a04 a23d
000002d0: e60e 043e 4497 983d 1d2a a3bb d5d5 a73c
000002e0: 248b 333d 0fc5 81bc 1a75 383d 5905 f83d
000002f0: 272d de3d 02a6 35bd 6cd4 8fbd 1b22 a83d
00000300: 238e 003e 7fbc e63d 19e8 8b3d 5b75 1ebb
00000310: a5a3 de3d 831f b5bd f98f f23d 9f77 cc3c
00000320: d3e7 023e 07bc bdbc 91c3 12bd c3d9 a3bd
00000330: 321b 1b3c cb19 2ebd b583 fabc f56e 29bc
00000340: dd5a 50bd 641b f3bc a916 96bd 08d8 ddbc
00000350: 5354 82bc f5e5 dfbc ab50 9e3d f461 64bc
00000360: d2e0 623d 59bc 5e3c a352 b33c 1c54 6c3d
00000370: c4c7 713c 9591 a53d 475e 4c3d 872c ae3b
00000380: 73d3 e03c 018b 803d 9cad af3d 4cf6 4f3d
00000390: c98a 513d 3526 9ac1 9cf8 c8c1 836e adbc
000003a0: ca98 223d 24da 7b3c d41a 923d 91e1 293e
000003b0: 3843 453d 1d00 26be 221a 02bd 4afe ffbd
000003c0: a3fc 42be 3425 6cbe f6c0 d23d 543c 06bc
000003d0: c0d2 b8bd bc77 133d df4b 263e 9ad0 3abe
000003e0: f5a3 00be ff12 92bd bf31 3f3c b89d 03be
000003f0: 7a6f 923d 0865 b1bd 6e15 6abd da63 893d
-0.096881114 -0.012113786 -0.0137576405 -0.058177616 0.04832479 -0.10020762 -0.05625654 -0.008897488
-0.057143696 -0.09878455 -0.058220744 -0.02518739 0.011351805 0.012539815 -0.010500641 -0.037092738
0.022019282 -0.05618464 0.06972461 0.04291748 -0.0686546 0.08010717 0.10748377 0.05127014
-0.095299244 -0.13909438 0.06818262 0.009113739 -0.029528966 -0.05565335 -0.05164284 -0.091793686
-0.12558581 -0.0029372405 0.026332911 -0.04734256 -0.010495992 0.022946965 0.02163809 -0.086998284
-0.03326858 0.02379338 0.014548415 -0.059172988 0.0069455565 -0.102793485 -0.12903619 0.013038515
-0.0999337 -0.09693366 -0.075597174 -0.0130104385 -0.027753824 0.021658001 0.026178626 -0.06581323
-0.0850728 -0.06767624 -0.012689643 -0.007012339 0.028053084 -0.09468472 0.021463126 -0.035289027
0.021213336 0.018004734 -0.051888768 0.03471429 -0.04932013 -0.08091235 -0.011021061 0.0048832865
0.0016459065 0.06757216 -0.086341284 -0.57816684 -0.29481786 0.10832187 -0.07063567 -0.10293139
-0.0052864337 -0.07542119 -0.06600143 -0.038735773 -0.08319952 -0.097852506 0.048603125 -0.08548204
0.043347012 0.046320613 -0.08925892 -0.025800908 0.040363695 -0.036332693 -0.06850161 -0.068497635
-0.022226054 -0.0050738943 -0.01659074 0.053657264 -0.062819935 -0.113368444 -0.10755327 0.0020232515
0.016699543 -0.076932706 -0.051245898 0.08097176 0.10743771 0.11069438 -0.08816091 -0.06420056
-0.089845456 0.054529905 0.10792601 -0.11057362 -0.022522062 -0.081702605 0.0170863 0.089019954
0.016602043 -0.03476392 0.028483583 -0.08672721 0.07727392 0.014641949 0.080440745 0.07680305
-0.07383358 -0.012379531 0.029162025 0.030302351 0.051301368 -0.062887184 0.0524717 -0.06664385
0.09084635 -0.061974466 0.005092927 -0.07896107 0.10582603 0.07305817 -0.030625569 -0.077359796
0.022236094 -0.0768612 -0.018630797 0.016363895 -0.01224387 0.014417659 0.024327707 -0.063270256
0.06956155 0.047990244 0.15327285 -0.033797752 -0.10670568 -0.13198227 -0.037075777 -0.014497969
0.046143748 0.01527202 0.060837906 0.052018307 -0.05811338 0.116301 -0.12002143 0.0025475377
0.005300179 -0.03838385 -0.021207102 -0.048086233 -0.011805561 0.1126342 0.10386884 0.022545926
0.047121685 -0.0048279343 -0.0066653457 0.07910998 0.12896308 0.07450727 -0.0049793855 0.020487705
0.043833867 -0.015841035 0.04503355 0.12110395 0.10848456 -0.04434777 -0.07022938 0.0820963
0.12554221 0.112664215 0.068313785 -0.0024178836 0.108710565 -0.08843901 0.11843867 0.024959384
0.12783746 -0.023160947 -0.035831038 -0.08000519 0.009466933 -0.042505067 -0.030580381 -0.010341396
-0.050867904 -0.029676147 -0.07328541 -0.02708055 -0.01590935 -0.027331332 0.0773023 -0.0139393695
0.055390187 0.01359471 0.02188999 0.0576974 0.0147571005 0.08084408 0.049894597 0.0053153667
0.027444577 0.06276513 0.08578035 0.050771996 0.051157746 -19.268656 -25.121391 -0.02117086
0.039696492 0.015371833 0.07134023 0.16589953 0.048159808 -0.1621098 -0.031763203 -0.12499674
-0.19041686 -0.23061067 0.10290711 -0.008193094 -0.09024572 0.03600286 0.1623988 -0.18243638
-0.12562545 -0.071325295 0.011669575 -0.12853134 0.07150169 -0.08661848 -0.057149343 0.06708498

net.0.bias f4 [128]
00000000: 92e9 06be 16bb 32bd 8f68 87bd ba46 b33d
00000010: e1a4 45bd 96de 1f3d f3c8 3fbd 06d5 3f3d
00000020: e1a0 b93c 1cdd 8fbd a101 3e3d 2ae4 09be
00000030: fab8 14bc 119e 3e3d 4663 00be f2f7 ee3c
00000040: cd88 913d 22f0 0cbd 09f0 443c 95bc 5d3d
00000050: 687a 7fbd a400 77bd dc24 923d 6614 ccbd
00000060: 29eb 8b3d 5628 843d e07b ad3d 066d bdbd
00000070: 3155 c83d 5e34 95ba 4c34 6c3d fab7 93bc
00000080: ebd1 2a3c 7bb6 d8bd 50cd 4fbd 8cac a13d
00000090: 71e8 e1bd 5456 44bd a97d a0bd 658a d43d
000000a0: 8152 bf3d eda0 eabd 005c b3bd b708 1e3d
000000b0: 1cab a4bd 7f5c 953d c61e c6bd 4a75 303b
000000c0: a1f1 a33d 8af7 11be f17a 7abd 2351 13bd
000000d0: 34be c1bd 4333 9c3d eee2 413c 8cb0 c6ba
000000e0: 2d2d 063c b1df 2f3b edc6 93bc 5696 b1bd
000000f0: d90b 17bd b27e 3e3d 9ab4 a43d 77e6 c03d
00000100: 4ca9 84bd 773e cb3d db18 4bbc 792e 72bd
00000110: 3df9 603d 7522 3c3d 33e5 30b9 a8e8 a03d
00000120: 9330 bdbd 801d 39bc 943d a23b fa1f cc3d
00000130: 018f d5bd 8a7e 26bd 9328 e4bd ee60 c53d
00000140: f6a0 813d 0b88 1cbc 8d7c e5bb 3a68 e4bd
00000150: e5d9 bebd 5f68 bebd 36cc cb3d ae5f 98bd
00000160: b963 fdbb d330 edbd d29f b1bc 0594 9a3d
00000170: 441a 2dbd b7dd cbbd 28a5 e93c d504 2cbb
00000180: 399f 903c 5b81 023c 0672 a5bd 0e55 d9bc
00000190: 6074 e7bd de4d 6bbd edea cabc 8fd6 08bc
000001a0: 7cbe 263d 0b86 26bd 3d44 713d 4099 67bd
000001b0: 4891 23bd c89c 3a3c 58e4 c13d 74d3 90bc
000001c0: bf2c 30bd 8ace ecbd 199a 07be 7c69 8bbd
000001d0: 9d86 d8bd ca06 403d 9b2e aabb 0678 cbbd
000001e0: 9af5 00be 4dee 0dbe 5c70 d9bd 7935 043a
000001f0: dd00 74bd bdd7 1cbd a020 dbbd 0958 b73d
-0.13175038 -0.04363545 -0.0661174 0.087537244 -0.048252944 0.039030634 -0.0468225 0.046834014
0.02265972 -0.07024595 0.046388272 -0.13465944 -0.009077305 0.046537463 -0.1253787 0.029170964
0.07106171 -0.034408696 0.0120201195 0.054134924 -0.062372595 -0.060303345 0.071359366 -0.09964828
0.068319626 0.06453006 0.08470893 -0.0924931 0.09781874 -0.0011383404 0.05766706 -0.018032063
0.010426025 -0.105816804 -0.05073291 0.07894239 -0.11030663 -0.04793389 -0.07836468 0.10377959
0.09341908 -0.114564754 -0.08757782 0.03858253 -0.08040449 0.07293033 -0.09673838 0.0026925378
0.080050714 -0.14254585 -0.061152402 -0.03596605 -0.094601065 0.07626965 0.011833889 -0.0015158816
0.008189482 0.0026836211 -0.018039191 -0.086712524 -0.036876533 0.046507545 0.080422595 0.09418958
-0.06477603 0.099240236 -0.012396063 -0.05912635 0.054925192 0.0459313 -0.00016870051 0.07856876
-0.092377804 -0.011298537 0.0049511883 0.099670365 -0.104276665 -0.04064802 -0.111405514 0.096376285
0.06329529 -0.00955392 -0.007003373 -0.11152692 -0.09318904 -0.09297251 0.099510595 -0.074401245
-0.007732835 -0.11581578 -0.021682654 0.07547764 -0.042261377 -0.09954398 0.028521135 -0.0026247997
0.017654048 0.007965411 -0.08078389 -0.026529815 -0.11301494 -0.057447307 -0.024770224 -0.008351936
0.040709004 -0.040655177 0.058902968 -0.056542635 -0.039933473 0.011389919 0.09467381 -0.017678954
-0.043011423 -0.11562832 -0.13242377 -0.06807229 -0.105725504 0.046881475 -0.005193544 -0.09935002
-0.1259369 -0.13860436 -0.10617134 0.00050433684 -0.059571136 -0.03829168 -0.10699582 0.08952338

net.2.weight f4 [64, 128]
00000000: 2bec c2bc d6e7 91bd b633 fcbd bcad a5bd
00000010: 4d65 9dbd 5076 89bd 40c8 90bd 0415 24bc
00000020: 555c 2f3d aae4 413d c105 953d 479f 9c3d
00000030: 2f83 583c 8bf6 1ebd 0b63 0cbc 8210 de3c
00000040: 9006 953c 9d30 063c 680e df3b a383 11be
00000050: ed2c 693c 2f42 a7bc 1028 8ebd ce3e 76bd
00000060: 0a67 6b3d 58d8 a4bd 5ef7 28bd 6873 d4bc
00000070: e76d 9d3c a63f 79bd f852 63bd 140d ce3d
00000080: d5d5 07bd 6dfb debb 4ede 6e3d 1459 723c
00000090: 3c2b 9a3d 27a3 0b3d ba48 bcbc 0e8b 5d3d
000000a0: c15b 3ebd 258c 003d 3e2a 5dbc 846c 463c
000000b0: f742 8fbd 8076 fdbd 71ef 6c3c 4c5c d0bd
000000c0: 8e6f c43c a389 58bc 9d78 bcbc d7eb 443d
000000d0: a4ee 5cbd bd27 273d d0c4 9ebd 0f92 3ebd
000000e0: 8325 d3bd a623 68bd cb98 e4bd 85a3 a33d
000000f0: f234 b9bc 7353 883c 9f89 333d 8f63 e13c
00000100: bfbc 413d 7132 5a3d 2a7e e53c 61ef c1ba
00000110: 9c2a 2b3d 0586 56bd 95c9 2c3d b1f0 f9bc
00000120: 8f44 a93d ea12 c13b 9984 9fbd d4cc a43d
00000130: 543d 81bd 7eea b4bd 6ef0 333d d1c4 9abd
00000140: 12bc bd3c 12a9 21be c879 5ebc 12f5 11bc
00000150: ad8f ca3c 1de8 dabc b56a 49bd 235e 90bd
00000160: d6d0 edbd f34d 753c 706f babd 485e d9bc
00000170: 40eb 3abd 56ab 80bc c330 a43d b19e 7cbd
00000180: 1e08 94bd 7dc5 6cbc 2f56 92bc 0cd5 78bc
00000190: b91c 103d fa12 a03d f0d1 cb3b 4522 64bd
000001a0: 0935 acbc 8bcb f3bd 56c9 ac3d a0da 2dbd
000001b0: 26e1 aabd d240 2f3c a391 463d 6537 17bd
000001c0: d12b ac3d 49a5 d7bd b885 c4bd 50a9 26bc
000001d0: 1959 06bc aaa5 19bd 4bfa c3bd 4b3b 863d
000001e0: 9fc5 f5bc cf89 84bd ca35 4b3c b758 52bd
000001f0: f1b5 49bd db7d a13d 23b5 a4bd 37b3 55bd
00000200: 9ebc 9ebb dd69 01bd 1a20 05be b6e7 c2bd
00000210: fef8 2ebd dc8e 2c3c 1571 67bd 3026 f4bd
00000220: cddc 733d 2df1 513d 6a91 e93c 2fdb 323d
00000230: c579 54bd 83b2 febc 0ed2 35bc 8f43 87bd
00000240: 10cc 04be 9d86 aabd db10 d3bb 4d80 9abd
00000250: 8d9d 333d cac8 8f3d 46ff 95bc 46bf 9f3c
00000260: 010e 993b 41a4 4d3d d19b 86bd 275a 573d
00000270: db8f 58bd 7991 7a3b 2397 e3bd e62a d5bd
00000280: 0f6c 86bc a10b 753c 7d5d 903c d8c2 1abe
00000290: fb8a b4bd 4d25 283c f894 fe3c c6c6 2f3c
000002a0: 862e 223d 5642 babc 1586 a53c 0a87 173c
000002b0: 0af3 ff3c 8ba5 0bbc 1feb d5bb 645b b4bd
000002c0: 68e9 a13c ac4b cebb 6edf 293d e26c 74bd
000002d0: 5c9b 8abd 609b 4cbd f49b 0cbd ceb7 cebc
000002e0: 86a8 14be deea 843d fcbd 49bd 65cd e3bb
000002f0: 1fac 933d e2f8 52bd b852 c4bc 2cec 0bbd
00000300: 5f7e 8bbc a66f 97bd 216b 1d3d 6172 ae3d
00000310: ff88 993c 758c 0e3c d22c 883d 5be0 94bd
00000320: 6539 1c3d 1885 983d f143 4bbd 7108 7c3d
00000330: 2055 debc 81c2 a13d 085b 33bd 5ce4 ff3c
00000340: 76de 853d 7343 f6bd 8b75 aabd ece9 8fbd
00000350: 366a a63b 3d33 75bc e918 443c f074 2abb
00000360: 2053 ffbd f2e9 6e3d e047 85bc 2e3a 06be
00000370: 6575 ce3c 4bd7 cabc f945 913c 85ca f83c
00000380: 0888 983d 0138 c4bd 2bd5 adbc 4584 a33d
00000390: ad98 14bd ad47 aa3d a09e 91bc 39bc cd3c
000003a0: 8547 843d e10a f5bd 9be3 30bd 7035 41bd
000003b0: c32f 76bd 3890 2cbd 28fe c2bd d510 203d
000003c0: b41a 4a3d 85c4 1c3d 6d50 b5bc 25f7 eebc
000003d0: 9a51 7bbd b27e f6bc 3b92 a4bd ba14 b0bd
000003e0: 0501 b8bd bfb1 c53d 7c24 94bd 9965 0abb
000003f0: bca0 a23d 3e88 abbd a97f 1d3d 3cf9 81bc
-0.023794254 -0.07124297 -0.123145506 -0.08089778 -0.07685337 -0.067120194 -0.07069445 -0.010014776
0.042812664 0.04733721 0.07276488 0.07647567 0.01321487 -0.03880934 -0.008568536 0.02710748
0.018191606 0.008190301 0.0068071373 -0.14210372 0.014231903 -0.020417301 -0.06941235 -0.06011849
0.057471313 -0.08049077 -0.041251533 -0.025933936 0.019217445 -0.060851716 -0.055499047 0.10061088
-0.03316291 -0.0068048746 0.058317475 0.014791746 0.075277776 0.03409114 -0.022983897 0.05408769
-0.046474222 0.031383652 -0.013498841 0.012110833 -0.069951944 -0.12376118 0.014461384 -0.10173854
0.023978975 -0.013216409 -0.023006732 0.048076477 -0.053938523 0.04080938 -0.07752383 -0.04652601
-0.10309889 -0.056674622 -0.111619554 0.07990173 -0.022608254 0.016641354 0.043832418 0.027513294
0.047299143 0.05327076 0.028014261 -0.0014796072 0.041788682 -0.052373905 0.04218443 -0.030510278
0.0826503 0.0058921473 -0.07788963 0.0804688 -0.063105255 -0.08833788 0.043930463 -0.07557071
0.023160968 -0.15787151 -0.01357884 -0.008908527 0.024726713 -0.026722008 -0.04917403 -0.07049205
-0.11612098 0.014972198 -0.09103286 -0.026534215 -0.045634508 -0.0157067 0.08017113 -0.061674777
-0.07228111 -0.014451382 -0.017863361 -0.015187513 0.035183642 0.078161195 0.006220095 -0.055696744
-0.021021383 -0.11904057 0.08436839 -0.042444825 -0.08343725 0.010696607 0.048478734 -0.036918063
0.08406795 -0.105295725 -0.09595817 -0.010172203 -0.0081999535 -0.037511505 -0.09569224 0.06554278
-0.03000146 -0.064715974 0.012402961 -0.051354136 -0.04924578 0.07885333 -0.080423616 -0.052172866
-0.0048442623 -0.0315951 -0.13000527 -0.095168516 -0.042717926 0.010532107 -0.056504328 -0.11921346
0.059536744 0.051255394 0.028511722 0.04366606 -0.05187394 -0.03109098 -0.011097444 -0.06604683
-0.12968469 -0.08326457 -0.0064412183 -0.07544003 0.043851424 0.07020719 -0.0183102 0.019500386
0.004670859 0.050205473 -0.06572688 0.05257621 -0.052871566 0.003823368 -0.111128114 -0.10408573
-0.016408948 0.014956386 0.017622704 -0.1511339 -0.08815571 0.010262799 0.031076893 0.010728544
0.03959515 -0.02273671 0.020205537 0.009248504 0.03124382 -0.008523355 -0.0065282728 -0.08806494
0.019764617 -0.006295642 0.041472845 -0.05967415 -0.06767914 -0.049952865 -0.034328416 -0.02523413
-0.14517412 0.0649011 -0.04925345 -0.006951975 0.07210564 -0.051506884 -0.023965225 -0.034160778
-0.017028032 -0.07394342 0.038432244 0.0851791 0.018742083 0.00870048 0.06649174 -0.07269355
0.038140673 0.074472606 -0.04962534 0.061531488 -0.0271402 0.07898427 -0.043787986 0.03123682
0.06536572 -0.12024584 -0.08323201 -0.07027039 0.0050785793 -0.014965829 0.01196883 -0.0026009642
-0.12467027 0.058328576 -0.016269624 -0.13108131 0.025202462 -0.024760863 0.01773356 0.030370006
0.07447821 -0.095809944 -0.02121981 0.07984213 -0.036278415 0.08314452 -0.017775834 0.025114166
0.06458954 -0.119649656 -0.04318581 -0.047170103 -0.060104143 -0.042129725 -0.09521133 0.039078552
0.049341872 0.038273353 -0.022133077 -0.029170582 -0.06135712 -0.03008971 -0.08035704 -0.08597703
-0.089845695 0.09653043 -0.07233521 -0.0021117686 0.07940814 -0.083755955 0.038451824 -0.015865915

net.2.bias f4 [64]
00000000: 1e9e 2dbd adb6 9bbd 60b7 41c0 e3e1 a2bc
00000010: 757a 81bd dd42 e9bd fcc6 ccbd 0d77 22be
00000020: 9e6c cbbd cad6 253f 8ae0 90be 3fd1 c7bd
00000030: 354a 0ebe 404d 783c 31d8 2a3d 9d3b c5bd
00000040: 9197 a2bd dc50 69bd 6275 813e eb81 11be
00000050: e885 b4bd ea5c b8bc dee1 f9bd 2bdb 06be
00000060: 5d1d eebd 2a34 2fbd f32d aabd 641d d3bd
00000070: d68a 2dbd 7213 3ebb 6873 23be 30b4 f5bd
00000080: 7f3a 563c 929d 1bbe 7c98 11bd 495f 08be
00000090: f834 d3bd 5dee efbd 468f 6cbf 86b0 d2bd
000000a0: 311f debe bdd2 e8bd ed55 30be 0742 673c
000000b0: d71a 133b b5a8 44bf adde e5bd 1c3e 2ebd
000000c0: fa2e 91bd 4a31 1dbe eeea d4bd e38f f9bd
000000d0: be0b 2dbe 5e8c 58bd 677e 09bd f431 5ebc
000000e0: f425 9ebd 8818 5d3d 0a5d 4ebd 792f 38bf
000000f0: de05 08bd 9403 0fbe 960b 0ebe 039e 02be
-0.04238712 -0.07603202 -3.0268173 -0.019883102 -0.06322185 -0.11389706 -0.09998891 -0.15865727
-0.099328265 0.6478087 -0.2829631 -0.097567074 -0.13895495 0.015155137 0.041710082 -0.09630511
-0.07939065 -0.05696188 0.25284868 -0.14209716 -0.08814603 -0.022505242 -0.12201284 -0.13169543
-0.11626694 -0.042774357 -0.08309545 -0.1030834 -0.042368732 -0.002900329 -0.15961993 -0.11997259
0.01307547 -0.15196827 -0.03554581 -0.13317598 -0.10312837 -0.11715386 -0.9240612 -0.102875754
-0.43383172 -0.1136832 -0.17220278 0.014114863 0.0022446418 -0.76819927 -0.11224113 -0.0425397
-0.07089038 -0.15350834 -0.10396372 -0.12185647 -0.1689901 -0.05286824 -0.033567812 -0.013561714
-0.07722083 0.053978473 -0.050381698 -0.7194744 -0.03320872 -0.13966209 -0.13871607 -0.12755589

net.4.weight f4 [1, 64]
00000000: cb45 94bc 887f 94bb 9d85 04bd 8091 f4bb
00000010: a240 a43c 3a6b ae3b 6487 eabc 2087 a4bc
00000020: 8154 143d 38ca 19bd 2b26 83bb 0062 fabb
00000030: b3d3 a53c 3d02 fc3c 7b7e 533d be2d 0ebc
00000040: 7498 553c 8d80 863d 0189 a6bc 8fce 803c
00000050: bb11 473d 5d7a 2e3a a9da 1b3c 3a8b 83bc
00000060: 5cd8 e93c 89db ae3c 539b a73b 3190 27bd
00000070: 5361 8d3c a6cc 83bd 5684 2d3c 709c ec3c
00000080: 0f0f 063d b8ba 61bc d068 e3bc c3b4 8ebc
00000090: ea90 0c3b 7f76 d93c 1244 cbbc 65db 09bd
000000a0: 8568 9bbc af7c b2bd 1026 01bc 774d 2dbc
000000b0: 2340 33bc 5de7 493d 1eaf 1bbc 64eb 7a3b
000000c0: fdf0 d2bc 08f0 8fbd f3dd 0f3c 36a5 8cbc
000000d0: 3255 cebb 2b68 a93c a410 57bc 8a0c 5d3c
000000e0: 283c 92bc 8426 41bd babb ac3c d695 f93c
000000f0: b5ef 11bd c215 c6bc 3fba 3a3b 363a c33b
-0.018099686 -0.0045318045 -0.032353986 -0.007463634 0.02005035 0.005322841 -0.028629012 -0.020083964
0.0362134 -0.037546366 -0.0040023527 -0.007641077 0.020242548 0.030762786 0.051634293 -0.008677898
0.013036836 0.06567488 -0.020329 0.015723495 0.048600893 0.0006655807 0.009512582 -0.0160576
0.028545551 0.021344917 0.0051149516 -0.040908996 0.017258322 -0.06435518 0.010590633 0.028883189
0.032729205 -0.013777427 -0.02775994 -0.017420178 0.002144868 0.026545761 -0.024812732 -0.033656497
-0.018970737 -0.08715188 -0.00788261 -0.010577551 -0.010940584 0.04929291 -0.0095022 0.0038287276
-0.025749678 -0.07028204 0.008780944 -0.017168622 -0.006296777 0.020679554 -0.013126526 0.013491759
-0.01785095 -0.047155872 0.021085609 0.030466955 -0.035628993 -0.024180297 0.002849236 0.005957867
