src/sliding_tiles/sliding_tiles_vanilla_custom.pth (torch, 76250 bytes, 5 tensors)

net.0.weight f4 [128, 77]
0.01626107 -0.016676292 0.012576563 -0.099585705 -0.039582115 0.023731811 -0.004081946 0.006680082
-0.014495475 0.049316783 0.036694672 0.06708878 -0.020834617 -0.07362654 -0.033986792 -0.083026744
-0.0037381852 -0.058605623 0.017792532 0.02827596 -0.07227349 -0.07464339 0.005198065 -0.040661372
-0.026723403 0.06305215 -0.024120888 -0.048471265 -0.06881957 -0.06952159 -0.008851931 -0.022466842
-0.057536542 0.07723771 -0.10889064 0.07023658 -0.09830812 0.04322369 0.029449908 -0.075145744
-0.020649698 0.041121863 0.04521047 0.0782548 0.012666549 -0.010411592 -0.008828091 0.072891615
0.042128257 -0.0021964621 -0.032009162 -0.083430015 -0.08045986 -0.039158672 -0.04002909 0.030799903
0.09795752 -0.0998977 0.0042018783 -0.12975295 -0.038879726 0.05199894 0.041710876 0.07387433
0.035774503 0.019083735 -0.08249303 -0.02423155 -0.11291373 -0.10077133 -0.09328213 -0.0003949173
0.045758 -0.026833992 -0.054019697 -2.361193 -2.3566253 0.018731406 -0.070905656 -0.10376109
0.0081714075 0.041657608 -0.098766044 -0.12392022 0.10231959 -0.013676618 -0.08058307 -0.06464933
-0.098766334 -0.058103997 0.066305935 0.02221834 -0.096661 -0.10973152 -0.015351087 0.06718729
-0.073091134 0.06760155 -0.007834378 -0.07486877 0.055574194 0.052094318 -0.06890543 0.089073606
-0.09346948 -0.050223324 0.082501076 -0.060713194 -0.016714903 0.07141933 -0.09591167 0.07526845
0.08818338 -0.054172713 -0.021692177 -0.07593888 -0.01959395 0.05064935 -0.024565905 0.10192817
-0.108560994 -0.06320408 -0.11363492 0.08274234 -0.012142391 0.049692538 -0.10984439 -0.05920736
0.075099744 -0.06271751 -0.022533434 -0.041921463 0.031666983 0.08715675 0.103930384 -0.0005215962
-0.013410048 0.02520688 -0.07967901 -0.05822264 -0.0019738537 -0.079445936 -0.11755704 -0.020767052
0.099503495 -0.020829776 -0.087487966 -0.021932341 -0.079475 0.03739751 -0.015089503 0.079851456
-0.09545154 -0.11052324 0.007130007 -0.106422156 0.038224198 -0.09470653 0.008722805 -0.10194624
-0.101390034 -0.12052804 -0.08860855 -0.07306215 -0.069460206 0.041410875 -0.09851209 0.06290353
-0.086385906 0.06985246 -0.07005374 0.0698176 -0.120027594 -0.0074520754 -0.025757417 -0.12296347
0.06204057 0.059463646 -0.018614326 0.022974234 -0.06886182 -0.13566422 0.035548847 -0.06441516
-0.10746999 -0.111329034 -0.12432137 -0.06720014 -0.04320965 0.04650963 0.03593462 -0.07525569
-0.059483334 -0.12421489 -0.040502463 0.04567005 -0.05849469 0.039104324 -0.047551353 0.02174486
-0.019721983 -0.053034432 0.023887467 0.046823632 0.008045314 0.01858177 0.042241577 0.064727955
-0.10081254 -0.076215304 -0.07256333 0.062479936 -0.0013560514 0.0803322 -0.06687095 -0.12652093
-0.10267282 0.022070024 0.06881022 0.043217935 0.06557015 -0.11137021 0.044476945 -0.14088261
-0.023211686 -0.09920078 0.08020669 -0.0153445825 0.0013248337 0.58408415 0.5260012 -0.11293282
-0.09123819 -0.09154185 -0.056267176 0.072761774 0.0074339896 0.055648237 -0.08868086 -0.010273628
-0.057330202 0.06390433 -0.1089321 -0.03421736 -0.0330952 -0.05840699 -0.103993475 0.0035021047
0.043855913 -0.048854366 0.0549858 0.044608284 0.023071392 -0.044565707 -0.023938341 -0.006690012
00000000: ef35 853c b89c 88bc ee0d 4e3c 97f3 cbbd
00000010: db20 22bd 3769 c23c d8c1 85bb 97e4 da3b
00000020: 6e7e 6dbc 6500 4a3d 274d 163d d865 893d
00000030: 5cad aabc 83c9 96bd bc35 0bbd ed09 aabd
00000040: 57fc 74bb 730c 70bd a5c1 913c fca2 e73c
00000050: 2004 94bd a2de 98bd 8854 aa3b 8a8c 26bd
00000060: 0aeb dabc 7c21 813d 2b99 c5bc ce89 46bd
00000070: 46f1 8cbd 5661 8ebd b107 11bc 620c b8bc
00000080: 70ab 6bbd ce2e 9e3d 0e02 dfbd 32d8 8f3d
00000090: c555 c9bd 530b 313d ef40 f13c 03e6 99bd
000000a0: 8e29 a9bc 666f 283d 9d2e 393d 0d44 a03d
000000b0: 5b87 4f3c 6295 2abc b3a3 10bc 3348 953d
000000c0: ae8e 2c3d 85f2 0fbb 0a1c 03bd 5bdd aabd
000000d0: 24c8 a4bd d864 20bd 8bf5 23bd 1450 fc3c
000000e0: f49d c83d 2a97 ccbd e9af 893b f5dd 04be
000000f0: 5940 1fbd d7fc 543d 06d9 2a3d 6d4b 973d
00000100: 4988 123d 7e55 9c3c 1bf2 a8bd 3e81 c6bc
00000110: 503f e7bd 3361 cebd b40a bfbd e70c cfb9
00000120: be6c 3b3d f6d2 dbbc c243 5dbd c91d 17c0
00000130: f3d2 16c0 9b72 993c fc36 91bd b280 d4bd
00000140: 5ee1 053c 2ba1 2a3d da45 cabd e2c9 fdbd
00000150: ef8c d13d e513 60bc bd08 a5bd de66 84bd
00000160: 0146 cabd 75fe 6dbd 68cb 873d 3c03 b63c
00000170: 34f6 c5bd ebba e0bd 2083 7bbc 7d99 893d
00000180: ceb0 95bd ae72 8a3d c35b 00bc cc54 99bd
00000190: c4a1 633d da60 553d 4a1e 8dbd 396c b63d
000001a0: ed6c bfbd f9b6 4dbd 53f6 a83d 66ae 78bd
000001b0: b1ed 88bc 4c44 923d 566d c4bd 5826 9a3d
000001c0: 7d99 b43d 35e4 5dbd cbb3 b1bc d885 9bbd
000001d0: 7e83 a0bc b175 4f3d 703e c9bc b7bf d03d
000001e0: 3a55 debd 2471 81bd 6db9 e8bd d174 a93d
000001f0: e1f0 46bc 678a 4b3d 18f6 e0bd 6b83 72bd
00000200: e5cd 993d 0a72 80bd 0998 b8bc d7b5 2bbd
00000210: 3db5 013d 3d7f b23d 74d9 d43d babb 08ba
00000220: d1b5 5bbc a97e ce3c c02e a3bd dd7a 6ebd
00000230: c55b 01bb 8db4 a2bd bfc1 f0bd aa1f aabc
00000240: 7dc8 cb3d 35a3 aabc e42c b3bd 74ab b3bc
00000250: cac3 a2bd 222e 193d f639 77bc 2989 a33d
00000260: 197c c3bd 025a e2bd d5a2 e93b dcf3 d9bd
00000270: fa90 1c3d 7ff5 c1bd 19ea 0e3c 31c9 d0bd
00000280: 94a5 cfbd 68d7 f6bd 6678 b5bd 9ca1 95bd
00000290: 2741 8ebd 739e 293d b5c0 c9bd 91d3 803d
000002a0: 18eb b0bd ce0e 8f3d 5678 8fbd 88fc 8e3d
000002b0: 07d1 f5bd 8a30 f4bb 3801 d3bc 46d4 fbbd
000002c0: 411e 7e3d 2790 733d 127d 98bc 7634 bc3c
000002d0: 6d07 8dbd 90eb 0abe ab9b 113d 18ec 83bd
000002e0: 3a19 dcbd 7a00 e4bd 349c febd 3aa0 89bd
000002f0: 9afc 30bd e280 3e3d 2e30 133d a81f 9abd
00000300: cca4 73bd 6064 febd e9e5 25bd 8510 3b3d
00000310: 2198 6fbd db2b 203d 35c5 42bd 4722 b23c
00000320: ff8f a1bc a23a 59bd a6af c33c 23ca 3f3d
00000330: 7ed0 033c cc38 983c 8105 2d3d 1790 843d
00000340: ce76 cebd c516 9cbd 159c 94bd f6ea 7f3d
00000350: 89bd b1ba 3585 a43d a3f3 88bd b48e 01be
00000360: 2146 d2bd 32cc b43c 5fec 8c3d 4a05 313d
00000370: a549 863d 1116 e4bd 752d 363d 8843 10be
00000380: 6f26 bebc c729 cbbd 6843 a43d d867 7bbc
00000390: 0ba6 ad3a 8a86 153f 04a8 063f 5349 e7bd
000003a0: 17db babd 4b7a bbbd 6978 66bd 2004 953d
000003b0: d398 f33b 68ef 633d 509e b5bd b852 28bc
000003c0: 13d3 6abd 46e0 823d cb17 dfbd 8127 0cbd
000003d0: d58e 07bd 2b3c 6fbd 88fa d4bd 9183 653b
000003e0: 42a2 333d 841b 48bd ca38 613d 2db7 363d
000003f0: 3700 bd3c 888a 36bd 571a c4bc e337 dbbb

net.0.bias f4 [128]
0.06827975 0.068371356 -0.11179599 0.09490938 -0.03917247 -0.040638424 -0.023145104 -0.15469292
-0.11829469 0.01755195 0.013566162 0.011444777 -0.054810192 -0.07215175 0.100972764 -0.05163215
-0.11787494 -0.03703787 0.0005277499 0.04729974 -0.10070215 0.07798506 -0.124813125 -0.07829919
-0.107528076 0.08675983 -0.064465195 -0.0385365 -0.024828397 -0.062980466 -0.049406856 0.054831374
-0.00087565865 -0.121202566 -0.12298224 -0.11801096 -0.14298117 0.07806261 0.07820396 -0.08713102
0.09406989 -0.06844459 0.03590425 0.07392785 -0.049598437 0.06557479 -0.046391025 -0.118814334
-0.0020812408 0.085117385 0.10513882 -0.04981526 0.050246723 -0.09836307 -0.102947354 -0.09862787
-0.07339246 0.038811892 0.0929024 -0.13990334 0.02277177 -0.002246802 0.06398933 -0.096008606
0.0035877193 -0.13509844 -0.114813425 -0.028844476 0.06591027 0.05315457 -0.08479604 -0.04907933
0.04111407 -0.054925196 -0.11849059 -0.10609231 0.030196145 0.010036378 -0.10461074 0.0053408565
-0.04236354 -0.10293845 -0.04579046 -0.0021835917 -0.046183314 0.0929991 0.07759048 -0.02372849
0.017210593 0.03828391 -0.096432194 -0.047085714 -0.13691895 0.011142516 0.041529864 -0.0072109853
-0.111690916 0.016970733 0.06073838 0.019939275 -0.12235937 0.036943495 0.025774509 -0.028981077
-0.024126995 -0.060480393 0.026970373 0.050673507 -0.07640228 0.007305946 -0.016330061 -0.05408858
0.061899647 0.040319387 -0.047031626 -0.036353085 0.06380502 -0.017046234 -0.089680456 0.040120427
0.019898605 -0.021646462 0.057818487 -0.060480762 0.0895674 0.05373289 0.02885204 0.07888023
00000000: 41d6 8b3d 4806 8c3d 4cf5 e4bd d95f c23d
00000010: 5073 20bd 7a74 26bd cd9a bdbc d267 1ebe
00000020: 7d44 f2bd 1bc9 8f3c 9c44 5e3c e082 3b3c
00000030: a780 60bd 4cc4 93bd cfca ce3d 3c7c 53bd
00000040: 6b68 f1bd 06b5 17bd b258 0a3a 5fbd 413d
00000050: ee3c cebd a2b6 9f3d 069e ffbd 535b a0bd
00000060: ae37 dcbd 23af b13d 5406 84bd 73d8 1dbd
00000070: ec64 cbbc e7fb 80bd d85e 4abd dd96 603d
00000080: 758c 65ba 0d39 f8bd 1dde fbbd bbaf f1bd
00000090: a869 12be 4adf 9f3d 6629 a03d c071 b2bd
000000a0: b7a7 c03d ad2c 8cbd 5610 133d 7c67 973d
000000b0: bb27 4bbd 134c 863d 8404 3ebd ee54 f3bd
000000c0: 6d65 08bb 0652 ae3d 0653 d73d 160b 4cbd
000000d0: 82cf 4d3d 9472 c9bd 10d6 d2bd 69fd c9bd
000000e0: c94e 96bd 38f9 1e3d 9d43 be3d d242 0fbe
000000f0: dd8b ba3c 153f 13bb d60c 833d 29a0 c4bd
00000100: f11f 6b3b 3f57 0abe 4d23 ebbd 404b ecbc
00000110: f7fb 863d 9bb8 593d 8ca9 adbd 6807 49bd
00000120: 3a67 283d 3ef9 60bd 32ab f2bd ed46 d9bd
00000130: e85d f73c 9f6f 243c 283e d6bd 5a02 af3b
00000140: 6485 2dbd 65d1 d2bd c78e 3bbd 971a 0fbb
00000150: b72a 3dbd 5076 be3d c2e7 9e3d 4062 c2bc
00000160: 3bfd 8c3c 97cf 1c3d 3e7e c5bd f3dc 40bd
00000170: 7b34 0cbe 198f 363c 381b 2a3d 214a ecbb
00000180: 35be e4bd 3506 8b3c cfc8 783d b157 a33c
00000190: 8d97 fabd 1052 173d 1025 d33c b969 edbc
000001a0: faa5 c5bc 4aba 77bd f9f0 dc3c 068f 4f3d
000001b0: cc78 9cbd b866 ef3b 9fc6 85bc fd8b 5dbd
000001c0: 7c8a 7d3d f125 253d 3ca4 40bd f9e6 14bd
000001d0: 35ac 823d 8ba4 8bbc 63aa b7bd 5155 243d
000001e0: 6602 a33c ec53 b1bc 14d3 6c3d adba 77bd
000001f0: 1d6f b73d 0517 5c3d 1d5b ec3c f58b a13d

net.2.weight f4 [64, 128]
-0.043635122 -0.05339148 0.07070192 -0.07467139 0.013086528 0.021050032 0.017867057 -0.031968318
0.015423997 0.021600092 -0.07002023 -0.050150912 0.014056984 -0.03808742 0.030149078 -0.016745469
-0.08742478 0.008860763 0.05803727 0.04793759 -0.06129327 0.02388586 -0.076611474 0.057804566
0.010995389 -0.010016308 -0.010722764 0.0045540812 -0.087269574 -0.0795142 0.047723763 -0.049752485
0.070444375 0.059455417 0.021423133 -0.024305435 -0.24109733 0.030036155 -0.0039427853 -0.13186389
-0.05631652 0.0084231 -0.079073556 -0.034466453 -0.00017591675 -0.06645816 0.016491903 -0.024221292
0.01988106 -0.06288732 0.02340348 0.033184785 0.0026002035 -0.06908382 -0.16318513 0.05927143
0.050202273 0.0054106754 0.041765023 0.06978693 -0.020594662 -0.06724901 0.004689119 0.030765798
0.040395863 -0.0033351483 0.074511044 -0.07431616 -0.11785631 -0.01893449 -0.0115917865 -0.044057287
0.029024612 0.05931565 0.010309982 -0.2176005 -0.002285825 -0.0026409824 -0.06833383 -0.016002895
0.030448584 -0.0068949624 0.04156339 -0.05532547 -0.009689746 0.04734424 -0.0641702 0.026808208
0.027242977 -0.021774834 0.06296029 -0.06787395 -0.03989701 -0.019950856 -0.04430458 0.07539857
-0.040667925 -0.06287724 0.03109144 0.05069741 0.08550265 -0.06801585 0.06393263 0.04803521
0.05451784 -0.06697157 0.08682116 -0.00045445538 0.022902502 0.08466368 0.057951484 0.07800742
-0.0048377626 0.008163107 0.0611698 0.034519523 -0.06332072 0.0520026 -0.02236358 -0.097881205
0.0037239147 0.0138244815 0.0044955737 0.0138277225 0.013916172 0.036629528 -0.0454025 0.059369594
-0.05031974 -0.087114364 -0.01302637 -0.045721248 -0.13451065 -0.04777164 -0.080657855 -0.031308994
0.023036793 -0.019272963 0.047870416 0.046591192 -0.06788856 -0.055247016 -0.00014751739 -0.07579553
-0.013159665 0.0522829 0.06633895 -0.038309745 0.00503396 0.02332823 0.08645153 -0.09205748
0.0097633805 -0.04500268 -0.06734423 0.030781034 0.042777322 -0.10591966 -0.057824522 0.017148668
-0.02562404 -0.014286479 -0.12596618 -0.084563635 -0.025936501 0.06299123 -0.044960395 -0.0575271
-0.04914801 -0.06194575 -0.07305265 0.058489036 0.022980405 0.008107768 0.07472346 0.093088016
0.024832606 -0.07963533 -0.06945517 0.04532372 -0.11135672 0.016681105 0.025024427 -0.0295082
-0.025866974 -0.06356335 -0.08037845 0.04511555 0.02080742 0.0751201 -0.02755838 0.020624213
-0.03495459 0.004493704 -0.009504241 -0.009174642 0.005233871 -0.049136493 0.009484302 -0.024356851
0.026751742 -0.101919085 -0.0058410945 -0.07613622 0.07385334 0.04079762 -0.0029489412 0.006934126
-0.07610472 0.087380774 -0.001915532 -0.08125816 0.03186425 -0.09746719 -0.08929839 0.055530272
0.005165992 -0.08228974 0.018513424 0.060079332 -0.05727389 -0.058740977 -0.016469749 -0.030767893
-0.0095726345 -0.12365329 -0.07550786 -0.085999824 0.064015605 0.008687688 -0.09657428 -0.07867326
-0.06201334 0.009765528 0.0553818 -0.07359005 -0.07773682 -0.012114553 0.035555746 0.030389184
0.01952771 0.06762061 0.039124392 -0.036362026 -0.06670007 -0.06371564 0.020531667 0.016717885
0.05629543 -0.0834286 -0.033875212 0.024288902 -0.010454737 -0.06466021 0.029538976 0.067122556
00000000: beba 32bd 06b1 5abd 2bcc 903d 50ed 98bd
00000010: e068 563c 1e71 ac3c ef5d 923c 36f1 02bd
00000020: efb4 7c3c adf2 b03c c466 8fbd 0b6b 4dbd
00000030: 444f 663c 8e01 1cbd 33fb f63c cb2d 89bc
00000040: c30b b3bd bc2c 113c 7db8 6d3d 355a 443d
00000050: a70e 7bbd 47ac c33c 7ae6 9cbd 7bc4 6c3d
00000060: 0126 343c 711b 24bc 88ae 2fbc 673a 953b
00000070: 64ba b2bd 57d8 a2bd fe79 433d 43c9 4bbd
00000080: 2445 903d 8687 733d 917f af3c 311c c7bc
00000090: 38e2 76be 620e f63c 7b32 81bb 5407 07be
000000a0: 27ac 66bd 0b01 0a3c 51f1 a1bd b22c 0dbd
000000b0: 4b76 38b9 371b 88bd 071a 873c bb6b c6bc
000000c0: 9bdd a23c 11cb 80bd a8b8 bf3c c5ec 073d
000000d0: 2d68 2a3b d17b 8dbd 011a 27be 99c6 723d
000000e0: e6a0 4d3d 094c b13b cd11 2b3d 73ec 8e3d
000000f0: 23b6 a8bc d9b9 89bd 2ea7 993b 8e08 fc3c
00000100: 2276 253d 8192 5abb 3f99 983d 1233 98bd
00000110: a65e f1bd 811c 9bbc 7aeb 3dbc 6a75 34bd
00000120: 06c5 ed3c f8f4 723d 33eb 283c aad2 5ebe
00000130: c8cd 15bb 5514 2dbb 9bf2 8bbd 8118 83bc
00000140: 4f6f f93c 23ef e1bb 603e 2a3d f69c 62bd
00000150: bec1 1ebc 09ec 413d aa6b 83bd e39c db3c
00000160: aa2c df3c 2361 b2bc 53f1 803d 7f01 8bbd
00000170: 0c6b 23bd fa6f a3bc b878 35bd 916a 9a3d
00000180: 6993 26bd c8c5 80bd 7ab3 fe3c 16a8 4f3d
00000190: 031c af3d e54b 8bbd 1cef 823d 92c0 443d
000001a0: 194e 5f3d 6428 89bd 4bcf b13d f843 eeb9
000001b0: 079e bb3c 2764 ad3d 895e 6d3d 5bc2 9f3d
000001c0: 1886 9ebb 8dbe 053c 2f8d 7a3d 5864 0d3d
000001d0: 4bae 81bd ae00 553d d433 b7bc f175 c8bd
000001e0: ec0c 743b 1480 623c 9b4f 933b ac8d 623c
000001f0: a800 643c d808 163d f9f7 39bd 882d 733d
00000200: 121c 4ebd 0469 b2bd 8e6c 55bc 3446 3bbd
00000210: 29bd 09be 32ac 43bd f22f a5bd dc3d 00bd
00000220: a8b7 bc3c 55e2 9dbc c513 443d 68d6 3e3d
00000230: 2809 8bbd b24a 62bd e6ae 1ab9 b03a 9bbd
00000240: a39b 57bc 9826 563d b7dc 873d aeea 1cbd
00000250: ebf3 a43b d81a bf3c 800d b13d a288 bcbd
00000260: 96f6 1f3c bb54 38bd c6eb 89bd 8228 fc3c
00000270: 4637 2f3d 68ec d8bd 68d9 6cbd 5d7b 8c3c
00000280: 82e9 d1bc d611 6abc 47fd 00be b32f adbd
00000290: c978 d4bc 8c01 813d 6428 38bd 89a1 6bbd
000002a0: 6c4f 49bd d4ba 7dbd a19c 95bd 3392 6f3d
000002b0: 6741 bc3c 72d6 043c 9d08 993d eea4 be3d
000002c0: c06d cb3c d917 a3bd 833e 8ebd 5da5 393d
000002d0: fe0e e4bd d0a6 883c 0700 cd3c 2ebb f1bc
000002e0: fae6 d3bc 802d 82bd 759d a4bd 15cb 383d
000002f0: 5374 aa3c 91d8 993d 1dc2 e1bc 1cf4 a83c
00000300: 8b2c 0fbd ec3f 933b adb7 1bbc 3d51 16bc
00000310: e480 ab3b 5943 49bd 0c64 1b3c 0588 c7bc
00000320: 7826 db3c f4ba d0bd a766 bfbb 4eed 9bbd
00000330: 6c40 973d 681b 273d 0643 41bb aa37 e33b
00000340: cbdc 9bbd b1f4 b23d 9712 fbba ae6a a6bd
00000350: 1684 023d e19c c7bd 13e2 b6bd b673 633d
00000360: 7b47 a93b 8687 a8bd 77a9 973c bf15 763d
00000370: 0798 6abd 619a 70bd 91eb 86bc f30c fcbc
00000380: 8ad6 1cbc f03d fdbd dda3 9abd ad20 b0bd
00000390: 9d1a 833d ce56 0e3c bcc8 c5bd 721f a1bd
000003a0: b301 7ebd 98ff 1f3c 07d8 623d 61b6 96bd
000003b0: 7b34 9fbd 1e7c 46bc e7a2 113d bdf2 f83c
000003c0: 93f8 9f3c ad7c 8a3d e640 203d 59f0 14bd
000003d0: 0c9a 88bd 587d 82bd 0732 a83c f2f3 883c
000003e0: 0996 663d 9ddc aabd bcc0 0abd 85f9 c63c
000003f0: 584a 2bbc 926c 84bd b9fb f13c 8d77 893d

net.2.bias f4 [64]
-0.16355026 -0.019308437 -0.116386645 -0.11994579 -0.74531245 -0.005465554 -0.19072936 -0.036480013
-0.06963721 -0.120071165 -0.0092174085 -0.023089165 -0.031498767 -0.0046600136 -0.059533257 -0.17142674
-0.12744546 -0.05658046 -0.005075493 -0.004335863 -0.009187822 -0.11013281 -0.05666998 -0.13158448
0.17476971 -0.1270949 -0.021405641 -0.09486565 -0.1638007 -0.09154739 -0.58357096 -0.020476034
-0.024494544 -0.15065472 -0.12633872 -0.059770525 -0.07414371 -0.09992596 -0.08500167 -0.007724676
-0.001926586 -0.08998067 -0.13908511 -0.0040301494 -0.1165587 -0.011017183 -0.08750867 -0.116472304
0.06979701 -0.099033035 -0.28308243 -0.07610241 -0.16093846 -0.19907503 -0.10305641 -0.055932865
-0.07718633 -0.30982104 -0.22228979 -0.05335535 -0.025716638 -0.15928426 -0.041599825 -0.4343762
00000000: b879 27be ba2c 9ebc 1f5c eebd 23a6 f5bd
00000010: cccc 3ebf 6418 b3bb 8f4e 43be 116c 15bd
00000020: f49d 8ebd dfe7 f5bd 9d04 17bc 7d25 bdbc
00000030: da04 01bd 07b3 98bb 25d9 73bd 7e8a 2fbe
00000040: 1081 02be eac0 67bd 5250 a6bb db13 8ebb
00000050: 8588 16bc 508d e1bd c81e 68bd 15be 06be
00000060: d5f6 323e 2a25 02be e25a afbc ec48 c2bd
00000070: 5fbb 27be 337d bbbd e864 15bf 5bbd a7bc
00000080: c8a8 c8bc 3b45 1abe f05e 01be f0d1 74bd
00000090: a8d8 97bd fba5 ccbd 5b15 aebd 471f fdbb
000000a0: 8085 fcba c947 b8bd 546c 0ebe 580f 84bb
000000b0: 54b6 eebd 6a81 34bc bf37 b3bd 0889 eebd
000000c0: bcf1 8e3d d5d1 cabd 2ef0 90be 95db 9bbd
000000d0: 0dcd 24be 53da 4bbe 3d0f d3bd dc19 65bd
000000e0: de13 9ebd dda0 9ebe ef9f 63be 248b 5abd
000000f0: b3ab d2bc 6a1b 23be 9464 2abd 8f66 debe

net.4.weight f4 [1, 64]
0.07807889 0.014986267 0.048046544 -0.015106279 0.31771278 -0.06463445 0.030443376 -0.017040346
0.0058652423 0.037147615 -0.0023717848 -0.07100389 -0.046342388 -0.048669048 -0.030667027 -0.06737435
0.010155091 0.028225657 -0.097012535 0.24888861 -0.10043758 0.0026904943 -0.017663078 -0.096979514
-0.18118624 -0.025986085 -0.17565401 0.035082206 -0.16930181 -0.021874735 0.38382757 -0.09516603
-0.0033766322 0.067469634 -0.03155634 -0.036496792 -0.098032765 -0.020555425 -0.026543688 -0.08109604
-0.02544905 0.03440871 0.14685325 -0.054468174 0.0018392752 -0.06480936 -0.028169878 -0.028433735
0.009171191 0.0001727488 0.089949764 -0.0043434724 -0.00054281764 0.031574015 -0.085563324 -0.035149075
-0.07138896 0.10545009 0.06955556 -0.025232192 -0.05639912 -0.046959568 -0.034064688 0.18325612
00000000: d3e7 9f3d f688 753c 74cc 443d 5480 77bc
00000010: 40ab a23e 115f 84bd 6364 f93c 3298 8bbc
00000020: 3831 c03b 1928 183d f26f 1bbb 7d6a 91bd
00000030: 84d1 3dbd 3259 47bd 6b39 fbbc 90fb 89bd
00000040: 8a61 263c 7e39 e73c 82ae c6bd a8dc 7e3e
00000050: 38b2 cdbd 0153 303b 29b2 90bc 329d c6bd
00000060: e388 39be c5e0 d4bc a5de 33be 5cb2 0f3d
00000070: 745d 2dbe a532 b3bc 0c85 c43e 68e6 c2bd
00000080: 7d4a 5dbb 852d 8a3d 3941 01bd a97d 15bd
00000090: 67c5 c8bd da63 a8bc 2672 d9bc ae15 a6bd
000000a0: 877a d0bc 26f0 0c3d b360 163e 051a 5fbd
000000b0: d613 f13a c5ba 84bd 84c4 e6bc dded e8bc
000000c0: c342 163c e723 3539 9537 b83d b053 8ebb
000000d0: e04b 0eba c153 013d d33b afbd 7af8 0fbd
000000e0: 6034 92bd 37f6 d73d 2573 8e3d beb3 cebc
000000f0: c302 67bd ad58 40bd 6a87 0bbd 7ea7 3b3e
